{"format": "layers-model", "generatedBy": "keras v2.2.4-tf", "convertedBy": "TensorFlow.js Converter v1.1.2", "modelTopology": {"keras_version": "2.2.4-tf", "backend": "tensorflow", "model_config": {"class_name": "Model", "config": {"layers": [{"class_name": "InputLayer", "config": {"dtype": "float32", "batch_input_shape": [null, 150, 150, 3], "name": "input_1", "sparse": false}, "inbound_nodes": [], "name": "input_1"}, {"class_name": "Conv2D", "config": {"kernel_initializer": {"class_name": "GlorotUniform", "config": {"dtype": "float32", "seed": null}}, "name": "conv2d", "kernel_constraint": null, "bias_regularizer": null, "bias_constraint": null, "dtype": "float32", "activation": "linear", "trainable": false, "data_format": "channels_last", "padding": "valid", "strides": [2, 2], "dilation_rate": [1, 1], "kernel_regularizer": null, "filters": 32, "bias_initializer": {"class_name": "Zeros", "config": {"dtype": "float32"}}, "use_bias": false, "activity_regularizer": null, "kernel_size": [3, 3]}, "inbound_nodes": [[["input_1", 0, 0, {}]]], "name": "conv2d"}, {"class_name": "BatchNormalization", "config": {"beta_constraint": null, "gamma_initializer": {"class_name": "Ones", "config": {"dtype": "float32"}}, "moving_mean_initializer": {"class_name": "Zeros", "config": {"dtype": "float32"}}, "name": "batch_normalization_v1", "dtype": "float32", "trainable": false, "moving_variance_initializer": {"class_name": "Ones", "config": {"dtype": "float32"}}, "beta_initializer": {"class_name": "Zeros", "config": {"dtype": "float32"}}, "scale": false, "axis": [3], "epsilon": 0.001, "gamma_constraint": null, "gamma_regularizer": null, "beta_regularizer": null, "momentum": 0.99, "center": true}, "inbound_nodes": [[["conv2d", 0, 0, {}]]], "name": "batch_normalization_v1"}, {"class_name": "Activation", "config": {"dtype": "float32", "activation": "relu", "trainable": false, "name": "activation"}, "inbound_nodes": [[["batch_normalization_v1", 0, 0, {}]]], "name": "activation"}, {"class_name": "Conv2D", "config": {"kernel_initializer": {"class_name": "GlorotUniform", "config": {"dtype": "float32", "seed": null}}, "name": "conv2d_1", "kernel_constraint": null, "bias_regularizer": null, "bias_constraint": null, "dtype": "float32", "activation": "linear", "trainable": false, "data_format": "channels_last", "padding": "valid", "strides": [1, 1], "dilation_rate": [1, 1], "kernel_regularizer": null, "filters": 32, "bias_initializer": {"class_name": "Zeros", "config": {"dtype": "float32"}}, "use_bias": false, "activity_regularizer": null, "kernel_size": [3, 3]}, "inbound_nodes": [[["activation", 0, 0, {}]]], "name": "conv2d_1"}, {"class_name": "BatchNormalization", "config": {"beta_constraint": null, "gamma_initializer": {"class_name": "Ones", "config": {"dtype": "float32"}}, "moving_mean_initializer": {"class_name": "Zeros", "config": {"dtype": "float32"}}, "name": "batch_normalization_v1_1", "dtype": "float32", "trainable": false, "moving_variance_initializer": {"class_name": "Ones", "config": {"dtype": "float32"}}, "beta_initializer": {"class_name": "Zeros", "config": {"dtype": "float32"}}, "scale": false, "axis": [3], "epsilon": 0.001, "gamma_constraint": null, "gamma_regularizer": null, "beta_regularizer": null, "momentum": 0.99, "center": true}, "inbound_nodes": [[["conv2d_1", 0, 0, {}]]], "name": "batch_normalization_v1_1"}, {"class_name": "Activation", "config": {"dtype": "float32", "activation": "relu", "trainable": false, "name": "activation_1"}, "inbound_nodes": [[["batch_normalization_v1_1", 0, 0, {}]]], "name": "activation_1"}, {"class_name": "Conv2D", "config": {"kernel_initializer": {"class_name": "GlorotUniform", "config": {"dtype": "float32", "seed": null}}, "name": "conv2d_2", "kernel_constraint": null, "bias_regularizer": null, "bias_constraint": null, "dtype": "float32", "activation": "linear", "trainable": false, "data_format": "channels_last", "padding": "same", "strides": [1, 1], "dilation_rate": [1, 1], "kernel_regularizer": null, "filters": 64, "bias_initializer": {"class_name": "Zeros", "config": {"dtype": "float32"}}, "use_bias": false, "activity_regularizer": null, "kernel_size": [3, 3]}, "inbound_nodes": [[["activation_1", 0, 0, {}]]], "name": "conv2d_2"}, {"class_name": "BatchNormalization", "config": {"beta_constraint": null, "gamma_initializer": {"class_name": "Ones", "config": {"dtype": "float32"}}, "moving_mean_initializer": {"class_name": "Zeros", "config": {"dtype": "float32"}}, "name": "batch_normalization_v1_2", "dtype": "float32", "trainable": false, "moving_variance_initializer": {"class_name": "Ones", "config": {"dtype": "float32"}}, "beta_initializer": {"class_name": "Zeros", "config": {"dtype": "float32"}}, "scale": false, "axis": [3], "epsilon": 0.001, "gamma_constraint": null, "gamma_regularizer": null, "beta_regularizer": null, "momentum": 0.99, "center": true}, "inbound_nodes": [[["conv2d_2", 0, 0, {}]]], "name": "batch_normalization_v1_2"}, {"class_name": "Activation", "config": {"dtype": "float32", "activation": "relu", "trainable": false, "name": "activation_2"}, "inbound_nodes": [[["batch_normalization_v1_2", 0, 0, {}]]], "name": "activation_2"}, {"class_name": "MaxPooling2D", "config": {"name": "max_pooling2d", "dtype": "float32", "trainable": false, "data_format": "channels_last", "pool_size": [3, 3], "padding": "valid", "strides": [2, 2]}, "inbound_nodes": [[["activation_2", 0, 0, {}]]], "name": "max_pooling2d"}, {"class_name": "Conv2D", "config": {"kernel_initializer": {"class_name": "GlorotUniform", "config": {"dtype": "float32", "seed": null}}, "name": "conv2d_3", "kernel_constraint": null, "bias_regularizer": null, "bias_constraint": null, "dtype": "float32", "activation": "linear", "trainable": false, "data_format": "channels_last", "padding": "valid", "strides": [1, 1], "dilation_rate": [1, 1], "kernel_regularizer": null, "filters": 80, "bias_initializer": {"class_name": "Zeros", "config": {"dtype": "float32"}}, "use_bias": false, "activity_regularizer": null, "kernel_size": [1, 1]}, "inbound_nodes": [[["max_pooling2d", 0, 0, {}]]], "name": "conv2d_3"}, {"class_name": "BatchNormalization", "config": {"beta_constraint": null, "gamma_initializer": {"class_name": "Ones", "config": {"dtype": "float32"}}, "moving_mean_initializer": {"class_name": "Zeros", "config": {"dtype": "float32"}}, "name": "batch_normalization_v1_3", "dtype": "float32", "trainable": false, "moving_variance_initializer": {"class_name": "Ones", "config": {"dtype": "float32"}}, "beta_initializer": {"class_name": "Zeros", "config": {"dtype": "float32"}}, "scale": false, "axis": [3], "epsilon": 0.001, "gamma_constraint": null, "gamma_regularizer": null, "beta_regularizer": null, "momentum": 0.99, "center": true}, "inbound_nodes": [[["conv2d_3", 0, 0, {}]]], "name": "batch_normalization_v1_3"}, {"class_name": "Activation", "config": {"dtype": "float32", "activation": "relu", "trainable": false, "name": "activation_3"}, "inbound_nodes": [[["batch_normalization_v1_3", 0, 0, {}]]], "name": "activation_3"}, {"class_name": "Conv2D", "config": {"kernel_initializer": {"class_name": "GlorotUniform", "config": {"dtype": "float32", "seed": null}}, "name": "conv2d_4", "kernel_constraint": null, "bias_regularizer": null, "bias_constraint": null, "dtype": "float32", "activation": "linear", "trainable": false, "data_format": "channels_last", "padding": "valid", "strides": [1, 1], "dilation_rate": [1, 1], "kernel_regularizer": null, "filters": 192, "bias_initializer": {"class_name": "Zeros", "config": {"dtype": "float32"}}, "use_bias": false, "activity_regularizer": null, "kernel_size": [3, 3]}, "inbound_nodes": [[["activation_3", 0, 0, {}]]], "name": "conv2d_4"}, {"class_name": "BatchNormalization", "config": {"beta_constraint": null, "gamma_initializer": {"class_name": "Ones", "config": {"dtype": "float32"}}, "moving_mean_initializer": {"class_name": "Zeros", "config": {"dtype": "float32"}}, "name": "batch_normalization_v1_4", "dtype": "float32", "trainable": false, "moving_variance_initializer": {"class_name": "Ones", "config": {"dtype": "float32"}}, "beta_initializer": {"class_name": "Zeros", "config": {"dtype": "float32"}}, "scale": false, "axis": [3], "epsilon": 0.001, "gamma_constraint": null, "gamma_regularizer": null, "beta_regularizer": null, "momentum": 0.99, "center": true}, "inbound_nodes": [[["conv2d_4", 0, 0, {}]]], "name": "batch_normalization_v1_4"}, {"class_name": "Activation", "config": {"dtype": "float32", "activation": "relu", "trainable": false, "name": "activation_4"}, "inbound_nodes": [[["batch_normalization_v1_4", 0, 0, {}]]], "name": "activation_4"}, {"class_name": "MaxPooling2D", "config": {"name": "max_pooling2d_1", "dtype": "float32", "trainable": false, "data_format": "channels_last", "pool_size": [3, 3], "padding": "valid", "strides": [2, 2]}, "inbound_nodes": [[["activation_4", 0, 0, {}]]], "name": "max_pooling2d_1"}, {"class_name": "Conv2D", "config": {"kernel_initializer": {"class_name": "GlorotUniform", "config": {"dtype": "float32", "seed": null}}, "name": "conv2d_8", "kernel_constraint": null, "bias_regularizer": null, "bias_constraint": null, "dtype": "float32", "activation": "linear", "trainable": false, "data_format": "channels_last", "padding": "same", "strides": [1, 1], "dilation_rate": [1, 1], "kernel_regularizer": null, "filters": 64, "bias_initializer": {"class_name": "Zeros", "config": {"dtype": "float32"}}, "use_bias": false, "activity_regularizer": null, "kernel_size": [1, 1]}, "inbound_nodes": [[["max_pooling2d_1", 0, 0, {}]]], "name": "conv2d_8"}, {"class_name": "BatchNormalization", "config": {"beta_constraint": null, "gamma_initializer": {"class_name": "Ones", "config": {"dtype": "float32"}}, "moving_mean_initializer": {"class_name": "Zeros", "config": {"dtype": "float32"}}, "name": "batch_normalization_v1_8", "dtype": "float32", "trainable": false, "moving_variance_initializer": {"class_name": "Ones", "config": {"dtype": "float32"}}, "beta_initializer": {"class_name": "Zeros", "config": {"dtype": "float32"}}, "scale": false, "axis": [3], "epsilon": 0.001, "gamma_constraint": null, "gamma_regularizer": null, "beta_regularizer": null, "momentum": 0.99, "center": true}, "inbound_nodes": [[["conv2d_8", 0, 0, {}]]], "name": "batch_normalization_v1_8"}, {"class_name": "Activation", "config": {"dtype": "float32", "activation": "relu", "trainable": false, "name": "activation_8"}, "inbound_nodes": [[["batch_normalization_v1_8", 0, 0, {}]]], "name": "activation_8"}, {"class_name": "Conv2D", "config": {"kernel_initializer": {"class_name": "GlorotUniform", "config": {"dtype": "float32", "seed": null}}, "name": "conv2d_6", "kernel_constraint": null, "bias_regularizer": null, "bias_constraint": null, "dtype": "float32", "activation": "linear", "trainable": false, "data_format": "channels_last", "padding": "same", "strides": [1, 1], "dilation_rate": [1, 1], "kernel_regularizer": null, "filters": 48, "bias_initializer": {"class_name": "Zeros", "config": {"dtype": "float32"}}, "use_bias": false, "activity_regularizer": null, "kernel_size": [1, 1]}, "inbound_nodes": [[["max_pooling2d_1", 0, 0, {}]]], "name": "conv2d_6"}, {"class_name": "Conv2D", "config": {"kernel_initializer": {"class_name": "GlorotUniform", "config": {"dtype": "float32", "seed": null}}, "name": "conv2d_9", "kernel_constraint": null, "bias_regularizer": null, "bias_constraint": null, "dtype": "float32", "activation": "linear", "trainable": false, "data_format": "channels_last", "padding": "same", "strides": [1, 1], "dilation_rate": [1, 1], "kernel_regularizer": null, "filters": 96, "bias_initializer": {"class_name": "Zeros", "config": {"dtype": "float32"}}, "use_bias": false, "activity_regularizer": null, "kernel_size": [3, 3]}, "inbound_nodes": [[["activation_8", 0, 0, {}]]], "name": "conv2d_9"}, {"class_name": "BatchNormalization", "config": {"beta_constraint": null, "gamma_initializer": {"class_name": "Ones", "config": {"dtype": "float32"}}, "moving_mean_initializer": {"class_name": "Zeros", "config": {"dtype": "float32"}}, "name": "batch_normalization_v1_6", "dtype": "float32", "trainable": false, "moving_variance_initializer": {"class_name": "Ones", "config": {"dtype": "float32"}}, "beta_initializer": {"class_name": "Zeros", "config": {"dtype": "float32"}}, "scale": false, "axis": [3], "epsilon": 0.001, "gamma_constraint": null, "gamma_regularizer": null, "beta_regularizer": null, "momentum": 0.99, "center": true}, "inbound_nodes": [[["conv2d_6", 0, 0, {}]]], "name": "batch_normalization_v1_6"}, {"class_name": "BatchNormalization", "config": {"beta_constraint": null, "gamma_initializer": {"class_name": "Ones", "config": {"dtype": "float32"}}, "moving_mean_initializer": {"class_name": "Zeros", "config": {"dtype": "float32"}}, "name": "batch_normalization_v1_9", "dtype": "float32", "trainable": false, "moving_variance_initializer": {"class_name": "Ones", "config": {"dtype": "float32"}}, "beta_initializer": {"class_name": "Zeros", "config": {"dtype": "float32"}}, "scale": false, "axis": [3], "epsilon": 0.001, "gamma_constraint": null, "gamma_regularizer": null, "beta_regularizer": null, "momentum": 0.99, "center": true}, "inbound_nodes": [[["conv2d_9", 0, 0, {}]]], "name": "batch_normalization_v1_9"}, {"class_name": "Activation", "config": {"dtype": "float32", "activation": "relu", "trainable": false, "name": "activation_6"}, "inbound_nodes": [[["batch_normalization_v1_6", 0, 0, {}]]], "name": "activation_6"}, {"class_name": "Activation", "config": {"dtype": "float32", "activation": "relu", "trainable": false, "name": "activation_9"}, "inbound_nodes": [[["batch_normalization_v1_9", 0, 0, {}]]], "name": "activation_9"}, {"class_name": "AveragePooling2D", "config": {"name": "average_pooling2d", "dtype": "float32", "trainable": false, "data_format": "channels_last", "pool_size": [3, 3], "padding": "same", "strides": [1, 1]}, "inbound_nodes": [[["max_pooling2d_1", 0, 0, {}]]], "name": "average_pooling2d"}, {"class_name": "Conv2D", "config": {"kernel_initializer": {"class_name": "GlorotUniform", "config": {"dtype": "float32", "seed": null}}, "name": "conv2d_5", "kernel_constraint": null, "bias_regularizer": null, "bias_constraint": null, "dtype": "float32", "activation": "linear", "trainable": false, "data_format": "channels_last", "padding": "same", "strides": [1, 1], "dilation_rate": [1, 1], "kernel_regularizer": null, "filters": 64, "bias_initializer": {"class_name": "Zeros", "config": {"dtype": "float32"}}, "use_bias": false, "activity_regularizer": null, "kernel_size": [1, 1]}, "inbound_nodes": [[["max_pooling2d_1", 0, 0, {}]]], "name": "conv2d_5"}, {"class_name": "Conv2D", "config": {"kernel_initializer": {"class_name": "GlorotUniform", "config": {"dtype": "float32", "seed": null}}, "name": "conv2d_7", "kernel_constraint": null, "bias_regularizer": null, "bias_constraint": null, "dtype": "float32", "activation": "linear", "trainable": false, "data_format": "channels_last", "padding": "same", "strides": [1, 1], "dilation_rate": [1, 1], "kernel_regularizer": null, "filters": 64, "bias_initializer": {"class_name": "Zeros", "config": {"dtype": "float32"}}, "use_bias": false, "activity_regularizer": null, "kernel_size": [5, 5]}, "inbound_nodes": [[["activation_6", 0, 0, {}]]], "name": "conv2d_7"}, {"class_name": "Conv2D", "config": {"kernel_initializer": {"class_name": "GlorotUniform", "config": {"dtype": "float32", "seed": null}}, "name": "conv2d_10", "kernel_constraint": null, "bias_regularizer": null, "bias_constraint": null, "dtype": "float32", "activation": "linear", "trainable": false, "data_format": "channels_last", "padding": "same", "strides": [1, 1], "dilation_rate": [1, 1], "kernel_regularizer": null, "filters": 96, "bias_initializer": {"class_name": "Zeros", "config": {"dtype": "float32"}}, "use_bias": false, "activity_regularizer": null, "kernel_size": [3, 3]}, "inbound_nodes": [[["activation_9", 0, 0, {}]]], "name": "conv2d_10"}, {"class_name": "Conv2D", "config": {"kernel_initializer": {"class_name": "GlorotUniform", "config": {"dtype": "float32", "seed": null}}, "name": "conv2d_11", "kernel_constraint": null, "bias_regularizer": null, "bias_constraint": null, "dtype": "float32", "activation": "linear", "trainable": false, "data_format": "channels_last", "padding": "same", "strides": [1, 1], "dilation_rate": [1, 1], "kernel_regularizer": null, "filters": 32, "bias_initializer": {"class_name": "Zeros", "config": {"dtype": "float32"}}, "use_bias": false, "activity_regularizer": null, "kernel_size": [1, 1]}, "inbound_nodes": [[["average_pooling2d", 0, 0, {}]]], "name": "conv2d_11"}, {"class_name": "BatchNormalization", "config": {"beta_constraint": null, "gamma_initializer": {"class_name": "Ones", "config": {"dtype": "float32"}}, "moving_mean_initializer": {"class_name": "Zeros", "config": {"dtype": "float32"}}, "name": "batch_normalization_v1_5", "dtype": "float32", "trainable": false, "moving_variance_initializer": {"class_name": "Ones", "config": {"dtype": "float32"}}, "beta_initializer": {"class_name": "Zeros", "config": {"dtype": "float32"}}, "scale": false, "axis": [3], "epsilon": 0.001, "gamma_constraint": null, "gamma_regularizer": null, "beta_regularizer": null, "momentum": 0.99, "center": true}, "inbound_nodes": [[["conv2d_5", 0, 0, {}]]], "name": "batch_normalization_v1_5"}, {"class_name": "BatchNormalization", "config": {"beta_constraint": null, "gamma_initializer": {"class_name": "Ones", "config": {"dtype": "float32"}}, "moving_mean_initializer": {"class_name": "Zeros", "config": {"dtype": "float32"}}, "name": "batch_normalization_v1_7", "dtype": "float32", "trainable": false, "moving_variance_initializer": {"class_name": "Ones", "config": {"dtype": "float32"}}, "beta_initializer": {"class_name": "Zeros", "config": {"dtype": "float32"}}, "scale": false, "axis": [3], "epsilon": 0.001, "gamma_constraint": null, "gamma_regularizer": null, "beta_regularizer": null, "momentum": 0.99, "center": true}, "inbound_nodes": [[["conv2d_7", 0, 0, {}]]], "name": "batch_normalization_v1_7"}, {"class_name": "BatchNormalization", "config": {"beta_constraint": null, "gamma_initializer": {"class_name": "Ones", "config": {"dtype": "float32"}}, "moving_mean_initializer": {"class_name": "Zeros", "config": {"dtype": "float32"}}, "name": "batch_normalization_v1_10", "dtype": "float32", "trainable": false, "moving_variance_initializer": {"class_name": "Ones", "config": {"dtype": "float32"}}, "beta_initializer": {"class_name": "Zeros", "config": {"dtype": "float32"}}, "scale": false, "axis": [3], "epsilon": 0.001, "gamma_constraint": null, "gamma_regularizer": null, "beta_regularizer": null, "momentum": 0.99, "center": true}, "inbound_nodes": [[["conv2d_10", 0, 0, {}]]], "name": "batch_normalization_v1_10"}, {"class_name": "BatchNormalization", "config": {"beta_constraint": null, "gamma_initializer": {"class_name": "Ones", "config": {"dtype": "float32"}}, "moving_mean_initializer": {"class_name": "Zeros", "config": {"dtype": "float32"}}, "name": "batch_normalization_v1_11", "dtype": "float32", "trainable": false, "moving_variance_initializer": {"class_name": "Ones", "config": {"dtype": "float32"}}, "beta_initializer": {"class_name": "Zeros", "config": {"dtype": "float32"}}, "scale": false, "axis": [3], "epsilon": 0.001, "gamma_constraint": null, "gamma_regularizer": null, "beta_regularizer": null, "momentum": 0.99, "center": true}, "inbound_nodes": [[["conv2d_11", 0, 0, {}]]], "name": "batch_normalization_v1_11"}, {"class_name": "Activation", "config": {"dtype": "float32", "activation": "relu", "trainable": false, "name": "activation_5"}, "inbound_nodes": [[["batch_normalization_v1_5", 0, 0, {}]]], "name": "activation_5"}, {"class_name": "Activation", "config": {"dtype": "float32", "activation": "relu", "trainable": false, "name": "activation_7"}, "inbound_nodes": [[["batch_normalization_v1_7", 0, 0, {}]]], "name": "activation_7"}, {"class_name": "Activation", "config": {"dtype": "float32", "activation": "relu", "trainable": false, "name": "activation_10"}, "inbound_nodes": [[["batch_normalization_v1_10", 0, 0, {}]]], "name": "activation_10"}, {"class_name": "Activation", "config": {"dtype": "float32", "activation": "relu", "trainable": false, "name": "activation_11"}, "inbound_nodes": [[["batch_normalization_v1_11", 0, 0, {}]]], "name": "activation_11"}, {"class_name": "Concatenate", "config": {"dtype": "float32", "trainable": false, "name": "mixed0", "axis": 3}, "inbound_nodes": [[["activation_5", 0, 0, {}], ["activation_7", 0, 0, {}], ["activation_10", 0, 0, {}], ["activation_11", 0, 0, {}]]], "name": "mixed0"}, {"class_name": "Conv2D", "config": {"kernel_initializer": {"class_name": "GlorotUniform", "config": {"dtype": "float32", "seed": null}}, "name": "conv2d_15", "kernel_constraint": null, "bias_regularizer": null, "bias_constraint": null, "dtype": "float32", "activation": "linear", "trainable": false, "data_format": "channels_last", "padding": "same", "strides": [1, 1], "dilation_rate": [1, 1], "kernel_regularizer": null, "filters": 64, "bias_initializer": {"class_name": "Zeros", "config": {"dtype": "float32"}}, "use_bias": false, "activity_regularizer": null, "kernel_size": [1, 1]}, "inbound_nodes": [[["mixed0", 0, 0, {}]]], "name": "conv2d_15"}, {"class_name": "BatchNormalization", "config": {"beta_constraint": null, "gamma_initializer": {"class_name": "Ones", "config": {"dtype": "float32"}}, "moving_mean_initializer": {"class_name": "Zeros", "config": {"dtype": "float32"}}, "name": "batch_normalization_v1_15", "dtype": "float32", "trainable": false, "moving_variance_initializer": {"class_name": "Ones", "config": {"dtype": "float32"}}, "beta_initializer": {"class_name": "Zeros", "config": {"dtype": "float32"}}, "scale": false, "axis": [3], "epsilon": 0.001, "gamma_constraint": null, "gamma_regularizer": null, "beta_regularizer": null, "momentum": 0.99, "center": true}, "inbound_nodes": [[["conv2d_15", 0, 0, {}]]], "name": "batch_normalization_v1_15"}, {"class_name": "Activation", "config": {"dtype": "float32", "activation": "relu", "trainable": false, "name": "activation_15"}, "inbound_nodes": [[["batch_normalization_v1_15", 0, 0, {}]]], "name": "activation_15"}, {"class_name": "Conv2D", "config": {"kernel_initializer": {"class_name": "GlorotUniform", "config": {"dtype": "float32", "seed": null}}, "name": "conv2d_13", "kernel_constraint": null, "bias_regularizer": null, "bias_constraint": null, "dtype": "float32", "activation": "linear", "trainable": false, "data_format": "channels_last", "padding": "same", "strides": [1, 1], "dilation_rate": [1, 1], "kernel_regularizer": null, "filters": 48, "bias_initializer": {"class_name": "Zeros", "config": {"dtype": "float32"}}, "use_bias": false, "activity_regularizer": null, "kernel_size": [1, 1]}, "inbound_nodes": [[["mixed0", 0, 0, {}]]], "name": "conv2d_13"}, {"class_name": "Conv2D", "config": {"kernel_initializer": {"class_name": "GlorotUniform", "config": {"dtype": "float32", "seed": null}}, "name": "conv2d_16", "kernel_constraint": null, "bias_regularizer": null, "bias_constraint": null, "dtype": "float32", "activation": "linear", "trainable": false, "data_format": "channels_last", "padding": "same", "strides": [1, 1], "dilation_rate": [1, 1], "kernel_regularizer": null, "filters": 96, "bias_initializer": {"class_name": "Zeros", "config": {"dtype": "float32"}}, "use_bias": false, "activity_regularizer": null, "kernel_size": [3, 3]}, "inbound_nodes": [[["activation_15", 0, 0, {}]]], "name": "conv2d_16"}, {"class_name": "BatchNormalization", "config": {"beta_constraint": null, "gamma_initializer": {"class_name": "Ones", "config": {"dtype": "float32"}}, "moving_mean_initializer": {"class_name": "Zeros", "config": {"dtype": "float32"}}, "name": "batch_normalization_v1_13", "dtype": "float32", "trainable": false, "moving_variance_initializer": {"class_name": "Ones", "config": {"dtype": "float32"}}, "beta_initializer": {"class_name": "Zeros", "config": {"dtype": "float32"}}, "scale": false, "axis": [3], "epsilon": 0.001, "gamma_constraint": null, "gamma_regularizer": null, "beta_regularizer": null, "momentum": 0.99, "center": true}, "inbound_nodes": [[["conv2d_13", 0, 0, {}]]], "name": "batch_normalization_v1_13"}, {"class_name": "BatchNormalization", "config": {"beta_constraint": null, "gamma_initializer": {"class_name": "Ones", "config": {"dtype": "float32"}}, "moving_mean_initializer": {"class_name": "Zeros", "config": {"dtype": "float32"}}, "name": "batch_normalization_v1_16", "dtype": "float32", "trainable": false, "moving_variance_initializer": {"class_name": "Ones", "config": {"dtype": "float32"}}, "beta_initializer": {"class_name": "Zeros", "config": {"dtype": "float32"}}, "scale": false, "axis": [3], "epsilon": 0.001, "gamma_constraint": null, "gamma_regularizer": null, "beta_regularizer": null, "momentum": 0.99, "center": true}, "inbound_nodes": [[["conv2d_16", 0, 0, {}]]], "name": "batch_normalization_v1_16"}, {"class_name": "Activation", "config": {"dtype": "float32", "activation": "relu", "trainable": false, "name": "activation_13"}, "inbound_nodes": [[["batch_normalization_v1_13", 0, 0, {}]]], "name": "activation_13"}, {"class_name": "Activation", "config": {"dtype": "float32", "activation": "relu", "trainable": false, "name": "activation_16"}, "inbound_nodes": [[["batch_normalization_v1_16", 0, 0, {}]]], "name": "activation_16"}, {"class_name": "AveragePooling2D", "config": {"name": "average_pooling2d_1", "dtype": "float32", "trainable": false, "data_format": "channels_last", "pool_size": [3, 3], "padding": "same", "strides": [1, 1]}, "inbound_nodes": [[["mixed0", 0, 0, {}]]], "name": "average_pooling2d_1"}, {"class_name": "Conv2D", "config": {"kernel_initializer": {"class_name": "GlorotUniform", "config": {"dtype": "float32", "seed": null}}, "name": "conv2d_12", "kernel_constraint": null, "bias_regularizer": null, "bias_constraint": null, "dtype": "float32", "activation": "linear", "trainable": false, "data_format": "channels_last", "padding": "same", "strides": [1, 1], "dilation_rate": [1, 1], "kernel_regularizer": null, "filters": 64, "bias_initializer": {"class_name": "Zeros", "config": {"dtype": "float32"}}, "use_bias": false, "activity_regularizer": null, "kernel_size": [1, 1]}, "inbound_nodes": [[["mixed0", 0, 0, {}]]], "name": "conv2d_12"}, {"class_name": "Conv2D", "config": {"kernel_initializer": {"class_name": "GlorotUniform", "config": {"dtype": "float32", "seed": null}}, "name": "conv2d_14", "kernel_constraint": null, "bias_regularizer": null, "bias_constraint": null, "dtype": "float32", "activation": "linear", "trainable": false, "data_format": "channels_last", "padding": "same", "strides": [1, 1], "dilation_rate": [1, 1], "kernel_regularizer": null, "filters": 64, "bias_initializer": {"class_name": "Zeros", "config": {"dtype": "float32"}}, "use_bias": false, "activity_regularizer": null, "kernel_size": [5, 5]}, "inbound_nodes": [[["activation_13", 0, 0, {}]]], "name": "conv2d_14"}, {"class_name": "Conv2D", "config": {"kernel_initializer": {"class_name": "GlorotUniform", "config": {"dtype": "float32", "seed": null}}, "name": "conv2d_17", "kernel_constraint": null, "bias_regularizer": null, "bias_constraint": null, "dtype": "float32", "activation": "linear", "trainable": false, "data_format": "channels_last", "padding": "same", "strides": [1, 1], "dilation_rate": [1, 1], "kernel_regularizer": null, "filters": 96, "bias_initializer": {"class_name": "Zeros", "config": {"dtype": "float32"}}, "use_bias": false, "activity_regularizer": null, "kernel_size": [3, 3]}, "inbound_nodes": [[["activation_16", 0, 0, {}]]], "name": "conv2d_17"}, {"class_name": "Conv2D", "config": {"kernel_initializer": {"class_name": "GlorotUniform", "config": {"dtype": "float32", "seed": null}}, "name": "conv2d_18", "kernel_constraint": null, "bias_regularizer": null, "bias_constraint": null, "dtype": "float32", "activation": "linear", "trainable": false, "data_format": "channels_last", "padding": "same", "strides": [1, 1], "dilation_rate": [1, 1], "kernel_regularizer": null, "filters": 64, "bias_initializer": {"class_name": "Zeros", "config": {"dtype": "float32"}}, "use_bias": false, "activity_regularizer": null, "kernel_size": [1, 1]}, "inbound_nodes": [[["average_pooling2d_1", 0, 0, {}]]], "name": "conv2d_18"}, {"class_name": "BatchNormalization", "config": {"beta_constraint": null, "gamma_initializer": {"class_name": "Ones", "config": {"dtype": "float32"}}, "moving_mean_initializer": {"class_name": "Zeros", "config": {"dtype": "float32"}}, "name": "batch_normalization_v1_12", "dtype": "float32", "trainable": false, "moving_variance_initializer": {"class_name": "Ones", "config": {"dtype": "float32"}}, "beta_initializer": {"class_name": "Zeros", "config": {"dtype": "float32"}}, "scale": false, "axis": [3], "epsilon": 0.001, "gamma_constraint": null, "gamma_regularizer": null, "beta_regularizer": null, "momentum": 0.99, "center": true}, "inbound_nodes": [[["conv2d_12", 0, 0, {}]]], "name": "batch_normalization_v1_12"}, {"class_name": "BatchNormalization", "config": {"beta_constraint": null, "gamma_initializer": {"class_name": "Ones", "config": {"dtype": "float32"}}, "moving_mean_initializer": {"class_name": "Zeros", "config": {"dtype": "float32"}}, "name": "batch_normalization_v1_14", "dtype": "float32", "trainable": false, "moving_variance_initializer": {"class_name": "Ones", "config": {"dtype": "float32"}}, "beta_initializer": {"class_name": "Zeros", "config": {"dtype": "float32"}}, "scale": false, "axis": [3], "epsilon": 0.001, "gamma_constraint": null, "gamma_regularizer": null, "beta_regularizer": null, "momentum": 0.99, "center": true}, "inbound_nodes": [[["conv2d_14", 0, 0, {}]]], "name": "batch_normalization_v1_14"}, {"class_name": "BatchNormalization", "config": {"beta_constraint": null, "gamma_initializer": {"class_name": "Ones", "config": {"dtype": "float32"}}, "moving_mean_initializer": {"class_name": "Zeros", "config": {"dtype": "float32"}}, "name": "batch_normalization_v1_17", "dtype": "float32", "trainable": false, "moving_variance_initializer": {"class_name": "Ones", "config": {"dtype": "float32"}}, "beta_initializer": {"class_name": "Zeros", "config": {"dtype": "float32"}}, "scale": false, "axis": [3], "epsilon": 0.001, "gamma_constraint": null, "gamma_regularizer": null, "beta_regularizer": null, "momentum": 0.99, "center": true}, "inbound_nodes": [[["conv2d_17", 0, 0, {}]]], "name": "batch_normalization_v1_17"}, {"class_name": "BatchNormalization", "config": {"beta_constraint": null, "gamma_initializer": {"class_name": "Ones", "config": {"dtype": "float32"}}, "moving_mean_initializer": {"class_name": "Zeros", "config": {"dtype": "float32"}}, "name": "batch_normalization_v1_18", "dtype": "float32", "trainable": false, "moving_variance_initializer": {"class_name": "Ones", "config": {"dtype": "float32"}}, "beta_initializer": {"class_name": "Zeros", "config": {"dtype": "float32"}}, "scale": false, "axis": [3], "epsilon": 0.001, "gamma_constraint": null, "gamma_regularizer": null, "beta_regularizer": null, "momentum": 0.99, "center": true}, "inbound_nodes": [[["conv2d_18", 0, 0, {}]]], "name": "batch_normalization_v1_18"}, {"class_name": "Activation", "config": {"dtype": "float32", "activation": "relu", "trainable": false, "name": "activation_12"}, "inbound_nodes": [[["batch_normalization_v1_12", 0, 0, {}]]], "name": "activation_12"}, {"class_name": "Activation", "config": {"dtype": "float32", "activation": "relu", "trainable": false, "name": "activation_14"}, "inbound_nodes": [[["batch_normalization_v1_14", 0, 0, {}]]], "name": "activation_14"}, {"class_name": "Activation", "config": {"dtype": "float32", "activation": "relu", "trainable": false, "name": "activation_17"}, "inbound_nodes": [[["batch_normalization_v1_17", 0, 0, {}]]], "name": "activation_17"}, {"class_name": "Activation", "config": {"dtype": "float32", "activation": "relu", "trainable": false, "name": "activation_18"}, "inbound_nodes": [[["batch_normalization_v1_18", 0, 0, {}]]], "name": "activation_18"}, {"class_name": "Concatenate", "config": {"dtype": "float32", "trainable": false, "name": "mixed1", "axis": 3}, "inbound_nodes": [[["activation_12", 0, 0, {}], ["activation_14", 0, 0, {}], ["activation_17", 0, 0, {}], ["activation_18", 0, 0, {}]]], "name": "mixed1"}, {"class_name": "Conv2D", "config": {"kernel_initializer": {"class_name": "GlorotUniform", "config": {"dtype": "float32", "seed": null}}, "name": "conv2d_22", "kernel_constraint": null, "bias_regularizer": null, "bias_constraint": null, "dtype": "float32", "activation": "linear", "trainable": false, "data_format": "channels_last", "padding": "same", "strides": [1, 1], "dilation_rate": [1, 1], "kernel_regularizer": null, "filters": 64, "bias_initializer": {"class_name": "Zeros", "config": {"dtype": "float32"}}, "use_bias": false, "activity_regularizer": null, "kernel_size": [1, 1]}, "inbound_nodes": [[["mixed1", 0, 0, {}]]], "name": "conv2d_22"}, {"class_name": "BatchNormalization", "config": {"beta_constraint": null, "gamma_initializer": {"class_name": "Ones", "config": {"dtype": "float32"}}, "moving_mean_initializer": {"class_name": "Zeros", "config": {"dtype": "float32"}}, "name": "batch_normalization_v1_22", "dtype": "float32", "trainable": false, "moving_variance_initializer": {"class_name": "Ones", "config": {"dtype": "float32"}}, "beta_initializer": {"class_name": "Zeros", "config": {"dtype": "float32"}}, "scale": false, "axis": [3], "epsilon": 0.001, "gamma_constraint": null, "gamma_regularizer": null, "beta_regularizer": null, "momentum": 0.99, "center": true}, "inbound_nodes": [[["conv2d_22", 0, 0, {}]]], "name": "batch_normalization_v1_22"}, {"class_name": "Activation", "config": {"dtype": "float32", "activation": "relu", "trainable": false, "name": "activation_22"}, "inbound_nodes": [[["batch_normalization_v1_22", 0, 0, {}]]], "name": "activation_22"}, {"class_name": "Conv2D", "config": {"kernel_initializer": {"class_name": "GlorotUniform", "config": {"dtype": "float32", "seed": null}}, "name": "conv2d_20", "kernel_constraint": null, "bias_regularizer": null, "bias_constraint": null, "dtype": "float32", "activation": "linear", "trainable": false, "data_format": "channels_last", "padding": "same", "strides": [1, 1], "dilation_rate": [1, 1], "kernel_regularizer": null, "filters": 48, "bias_initializer": {"class_name": "Zeros", "config": {"dtype": "float32"}}, "use_bias": false, "activity_regularizer": null, "kernel_size": [1, 1]}, "inbound_nodes": [[["mixed1", 0, 0, {}]]], "name": "conv2d_20"}, {"class_name": "Conv2D", "config": {"kernel_initializer": {"class_name": "GlorotUniform", "config": {"dtype": "float32", "seed": null}}, "name": "conv2d_23", "kernel_constraint": null, "bias_regularizer": null, "bias_constraint": null, "dtype": "float32", "activation": "linear", "trainable": false, "data_format": "channels_last", "padding": "same", "strides": [1, 1], "dilation_rate": [1, 1], "kernel_regularizer": null, "filters": 96, "bias_initializer": {"class_name": "Zeros", "config": {"dtype": "float32"}}, "use_bias": false, "activity_regularizer": null, "kernel_size": [3, 3]}, "inbound_nodes": [[["activation_22", 0, 0, {}]]], "name": "conv2d_23"}, {"class_name": "BatchNormalization", "config": {"beta_constraint": null, "gamma_initializer": {"class_name": "Ones", "config": {"dtype": "float32"}}, "moving_mean_initializer": {"class_name": "Zeros", "config": {"dtype": "float32"}}, "name": "batch_normalization_v1_20", "dtype": "float32", "trainable": false, "moving_variance_initializer": {"class_name": "Ones", "config": {"dtype": "float32"}}, "beta_initializer": {"class_name": "Zeros", "config": {"dtype": "float32"}}, "scale": false, "axis": [3], "epsilon": 0.001, "gamma_constraint": null, "gamma_regularizer": null, "beta_regularizer": null, "momentum": 0.99, "center": true}, "inbound_nodes": [[["conv2d_20", 0, 0, {}]]], "name": "batch_normalization_v1_20"}, {"class_name": "BatchNormalization", "config": {"beta_constraint": null, "gamma_initializer": {"class_name": "Ones", "config": {"dtype": "float32"}}, "moving_mean_initializer": {"class_name": "Zeros", "config": {"dtype": "float32"}}, "name": "batch_normalization_v1_23", "dtype": "float32", "trainable": false, "moving_variance_initializer": {"class_name": "Ones", "config": {"dtype": "float32"}}, "beta_initializer": {"class_name": "Zeros", "config": {"dtype": "float32"}}, "scale": false, "axis": [3], "epsilon": 0.001, "gamma_constraint": null, "gamma_regularizer": null, "beta_regularizer": null, "momentum": 0.99, "center": true}, "inbound_nodes": [[["conv2d_23", 0, 0, {}]]], "name": "batch_normalization_v1_23"}, {"class_name": "Activation", "config": {"dtype": "float32", "activation": "relu", "trainable": false, "name": "activation_20"}, "inbound_nodes": [[["batch_normalization_v1_20", 0, 0, {}]]], "name": "activation_20"}, {"class_name": "Activation", "config": {"dtype": "float32", "activation": "relu", "trainable": false, "name": "activation_23"}, "inbound_nodes": [[["batch_normalization_v1_23", 0, 0, {}]]], "name": "activation_23"}, {"class_name": "AveragePooling2D", "config": {"name": "average_pooling2d_2", "dtype": "float32", "trainable": false, "data_format": "channels_last", "pool_size": [3, 3], "padding": "same", "strides": [1, 1]}, "inbound_nodes": [[["mixed1", 0, 0, {}]]], "name": "average_pooling2d_2"}, {"class_name": "Conv2D", "config": {"kernel_initializer": {"class_name": "GlorotUniform", "config": {"dtype": "float32", "seed": null}}, "name": "conv2d_19", "kernel_constraint": null, "bias_regularizer": null, "bias_constraint": null, "dtype": "float32", "activation": "linear", "trainable": false, "data_format": "channels_last", "padding": "same", "strides": [1, 1], "dilation_rate": [1, 1], "kernel_regularizer": null, "filters": 64, "bias_initializer": {"class_name": "Zeros", "config": {"dtype": "float32"}}, "use_bias": false, "activity_regularizer": null, "kernel_size": [1, 1]}, "inbound_nodes": [[["mixed1", 0, 0, {}]]], "name": "conv2d_19"}, {"class_name": "Conv2D", "config": {"kernel_initializer": {"class_name": "GlorotUniform", "config": {"dtype": "float32", "seed": null}}, "name": "conv2d_21", "kernel_constraint": null, "bias_regularizer": null, "bias_constraint": null, "dtype": "float32", "activation": "linear", "trainable": false, "data_format": "channels_last", "padding": "same", "strides": [1, 1], "dilation_rate": [1, 1], "kernel_regularizer": null, "filters": 64, "bias_initializer": {"class_name": "Zeros", "config": {"dtype": "float32"}}, "use_bias": false, "activity_regularizer": null, "kernel_size": [5, 5]}, "inbound_nodes": [[["activation_20", 0, 0, {}]]], "name": "conv2d_21"}, {"class_name": "Conv2D", "config": {"kernel_initializer": {"class_name": "GlorotUniform", "config": {"dtype": "float32", "seed": null}}, "name": "conv2d_24", "kernel_constraint": null, "bias_regularizer": null, "bias_constraint": null, "dtype": "float32", "activation": "linear", "trainable": false, "data_format": "channels_last", "padding": "same", "strides": [1, 1], "dilation_rate": [1, 1], "kernel_regularizer": null, "filters": 96, "bias_initializer": {"class_name": "Zeros", "config": {"dtype": "float32"}}, "use_bias": false, "activity_regularizer": null, "kernel_size": [3, 3]}, "inbound_nodes": [[["activation_23", 0, 0, {}]]], "name": "conv2d_24"}, {"class_name": "Conv2D", "config": {"kernel_initializer": {"class_name": "GlorotUniform", "config": {"dtype": "float32", "seed": null}}, "name": "conv2d_25", "kernel_constraint": null, "bias_regularizer": null, "bias_constraint": null, "dtype": "float32", "activation": "linear", "trainable": false, "data_format": "channels_last", "padding": "same", "strides": [1, 1], "dilation_rate": [1, 1], "kernel_regularizer": null, "filters": 64, "bias_initializer": {"class_name": "Zeros", "config": {"dtype": "float32"}}, "use_bias": false, "activity_regularizer": null, "kernel_size": [1, 1]}, "inbound_nodes": [[["average_pooling2d_2", 0, 0, {}]]], "name": "conv2d_25"}, {"class_name": "BatchNormalization", "config": {"beta_constraint": null, "gamma_initializer": {"class_name": "Ones", "config": {"dtype": "float32"}}, "moving_mean_initializer": {"class_name": "Zeros", "config": {"dtype": "float32"}}, "name": "batch_normalization_v1_19", "dtype": "float32", "trainable": false, "moving_variance_initializer": {"class_name": "Ones", "config": {"dtype": "float32"}}, "beta_initializer": {"class_name": "Zeros", "config": {"dtype": "float32"}}, "scale": false, "axis": [3], "epsilon": 0.001, "gamma_constraint": null, "gamma_regularizer": null, "beta_regularizer": null, "momentum": 0.99, "center": true}, "inbound_nodes": [[["conv2d_19", 0, 0, {}]]], "name": "batch_normalization_v1_19"}, {"class_name": "BatchNormalization", "config": {"beta_constraint": null, "gamma_initializer": {"class_name": "Ones", "config": {"dtype": "float32"}}, "moving_mean_initializer": {"class_name": "Zeros", "config": {"dtype": "float32"}}, "name": "batch_normalization_v1_21", "dtype": "float32", "trainable": false, "moving_variance_initializer": {"class_name": "Ones", "config": {"dtype": "float32"}}, "beta_initializer": {"class_name": "Zeros", "config": {"dtype": "float32"}}, "scale": false, "axis": [3], "epsilon": 0.001, "gamma_constraint": null, "gamma_regularizer": null, "beta_regularizer": null, "momentum": 0.99, "center": true}, "inbound_nodes": [[["conv2d_21", 0, 0, {}]]], "name": "batch_normalization_v1_21"}, {"class_name": "BatchNormalization", "config": {"beta_constraint": null, "gamma_initializer": {"class_name": "Ones", "config": {"dtype": "float32"}}, "moving_mean_initializer": {"class_name": "Zeros", "config": {"dtype": "float32"}}, "name": "batch_normalization_v1_24", "dtype": "float32", "trainable": false, "moving_variance_initializer": {"class_name": "Ones", "config": {"dtype": "float32"}}, "beta_initializer": {"class_name": "Zeros", "config": {"dtype": "float32"}}, "scale": false, "axis": [3], "epsilon": 0.001, "gamma_constraint": null, "gamma_regularizer": null, "beta_regularizer": null, "momentum": 0.99, "center": true}, "inbound_nodes": [[["conv2d_24", 0, 0, {}]]], "name": "batch_normalization_v1_24"}, {"class_name": "BatchNormalization", "config": {"beta_constraint": null, "gamma_initializer": {"class_name": "Ones", "config": {"dtype": "float32"}}, "moving_mean_initializer": {"class_name": "Zeros", "config": {"dtype": "float32"}}, "name": "batch_normalization_v1_25", "dtype": "float32", "trainable": false, "moving_variance_initializer": {"class_name": "Ones", "config": {"dtype": "float32"}}, "beta_initializer": {"class_name": "Zeros", "config": {"dtype": "float32"}}, "scale": false, "axis": [3], "epsilon": 0.001, "gamma_constraint": null, "gamma_regularizer": null, "beta_regularizer": null, "momentum": 0.99, "center": true}, "inbound_nodes": [[["conv2d_25", 0, 0, {}]]], "name": "batch_normalization_v1_25"}, {"class_name": "Activation", "config": {"dtype": "float32", "activation": "relu", "trainable": false, "name": "activation_19"}, "inbound_nodes": [[["batch_normalization_v1_19", 0, 0, {}]]], "name": "activation_19"}, {"class_name": "Activation", "config": {"dtype": "float32", "activation": "relu", "trainable": false, "name": "activation_21"}, "inbound_nodes": [[["batch_normalization_v1_21", 0, 0, {}]]], "name": "activation_21"}, {"class_name": "Activation", "config": {"dtype": "float32", "activation": "relu", "trainable": false, "name": "activation_24"}, "inbound_nodes": [[["batch_normalization_v1_24", 0, 0, {}]]], "name": "activation_24"}, {"class_name": "Activation", "config": {"dtype": "float32", "activation": "relu", "trainable": false, "name": "activation_25"}, "inbound_nodes": [[["batch_normalization_v1_25", 0, 0, {}]]], "name": "activation_25"}, {"class_name": "Concatenate", "config": {"dtype": "float32", "trainable": false, "name": "mixed2", "axis": 3}, "inbound_nodes": [[["activation_19", 0, 0, {}], ["activation_21", 0, 0, {}], ["activation_24", 0, 0, {}], ["activation_25", 0, 0, {}]]], "name": "mixed2"}, {"class_name": "Conv2D", "config": {"kernel_initializer": {"class_name": "GlorotUniform", "config": {"dtype": "float32", "seed": null}}, "name": "conv2d_27", "kernel_constraint": null, "bias_regularizer": null, "bias_constraint": null, "dtype": "float32", "activation": "linear", "trainable": false, "data_format": "channels_last", "padding": "same", "strides": [1, 1], "dilation_rate": [1, 1], "kernel_regularizer": null, "filters": 64, "bias_initializer": {"class_name": "Zeros", "config": {"dtype": "float32"}}, "use_bias": false, "activity_regularizer": null, "kernel_size": [1, 1]}, "inbound_nodes": [[["mixed2", 0, 0, {}]]], "name": "conv2d_27"}, {"class_name": "BatchNormalization", "config": {"beta_constraint": null, "gamma_initializer": {"class_name": "Ones", "config": {"dtype": "float32"}}, "moving_mean_initializer": {"class_name": "Zeros", "config": {"dtype": "float32"}}, "name": "batch_normalization_v1_27", "dtype": "float32", "trainable": false, "moving_variance_initializer": {"class_name": "Ones", "config": {"dtype": "float32"}}, "beta_initializer": {"class_name": "Zeros", "config": {"dtype": "float32"}}, "scale": false, "axis": [3], "epsilon": 0.001, "gamma_constraint": null, "gamma_regularizer": null, "beta_regularizer": null, "momentum": 0.99, "center": true}, "inbound_nodes": [[["conv2d_27", 0, 0, {}]]], "name": "batch_normalization_v1_27"}, {"class_name": "Activation", "config": {"dtype": "float32", "activation": "relu", "trainable": false, "name": "activation_27"}, "inbound_nodes": [[["batch_normalization_v1_27", 0, 0, {}]]], "name": "activation_27"}, {"class_name": "Conv2D", "config": {"kernel_initializer": {"class_name": "GlorotUniform", "config": {"dtype": "float32", "seed": null}}, "name": "conv2d_28", "kernel_constraint": null, "bias_regularizer": null, "bias_constraint": null, "dtype": "float32", "activation": "linear", "trainable": false, "data_format": "channels_last", "padding": "same", "strides": [1, 1], "dilation_rate": [1, 1], "kernel_regularizer": null, "filters": 96, "bias_initializer": {"class_name": "Zeros", "config": {"dtype": "float32"}}, "use_bias": false, "activity_regularizer": null, "kernel_size": [3, 3]}, "inbound_nodes": [[["activation_27", 0, 0, {}]]], "name": "conv2d_28"}, {"class_name": "BatchNormalization", "config": {"beta_constraint": null, "gamma_initializer": {"class_name": "Ones", "config": {"dtype": "float32"}}, "moving_mean_initializer": {"class_name": "Zeros", "config": {"dtype": "float32"}}, "name": "batch_normalization_v1_28", "dtype": "float32", "trainable": false, "moving_variance_initializer": {"class_name": "Ones", "config": {"dtype": "float32"}}, "beta_initializer": {"class_name": "Zeros", "config": {"dtype": "float32"}}, "scale": false, "axis": [3], "epsilon": 0.001, "gamma_constraint": null, "gamma_regularizer": null, "beta_regularizer": null, "momentum": 0.99, "center": true}, "inbound_nodes": [[["conv2d_28", 0, 0, {}]]], "name": "batch_normalization_v1_28"}, {"class_name": "Activation", "config": {"dtype": "float32", "activation": "relu", "trainable": false, "name": "activation_28"}, "inbound_nodes": [[["batch_normalization_v1_28", 0, 0, {}]]], "name": "activation_28"}, {"class_name": "Conv2D", "config": {"kernel_initializer": {"class_name": "GlorotUniform", "config": {"dtype": "float32", "seed": null}}, "name": "conv2d_26", "kernel_constraint": null, "bias_regularizer": null, "bias_constraint": null, "dtype": "float32", "activation": "linear", "trainable": false, "data_format": "channels_last", "padding": "valid", "strides": [2, 2], "dilation_rate": [1, 1], "kernel_regularizer": null, "filters": 384, "bias_initializer": {"class_name": "Zeros", "config": {"dtype": "float32"}}, "use_bias": false, "activity_regularizer": null, "kernel_size": [3, 3]}, "inbound_nodes": [[["mixed2", 0, 0, {}]]], "name": "conv2d_26"}, {"class_name": "Conv2D", "config": {"kernel_initializer": {"class_name": "GlorotUniform", "config": {"dtype": "float32", "seed": null}}, "name": "conv2d_29", "kernel_constraint": null, "bias_regularizer": null, "bias_constraint": null, "dtype": "float32", "activation": "linear", "trainable": false, "data_format": "channels_last", "padding": "valid", "strides": [2, 2], "dilation_rate": [1, 1], "kernel_regularizer": null, "filters": 96, "bias_initializer": {"class_name": "Zeros", "config": {"dtype": "float32"}}, "use_bias": false, "activity_regularizer": null, "kernel_size": [3, 3]}, "inbound_nodes": [[["activation_28", 0, 0, {}]]], "name": "conv2d_29"}, {"class_name": "BatchNormalization", "config": {"beta_constraint": null, "gamma_initializer": {"class_name": "Ones", "config": {"dtype": "float32"}}, "moving_mean_initializer": {"class_name": "Zeros", "config": {"dtype": "float32"}}, "name": "batch_normalization_v1_26", "dtype": "float32", "trainable": false, "moving_variance_initializer": {"class_name": "Ones", "config": {"dtype": "float32"}}, "beta_initializer": {"class_name": "Zeros", "config": {"dtype": "float32"}}, "scale": false, "axis": [3], "epsilon": 0.001, "gamma_constraint": null, "gamma_regularizer": null, "beta_regularizer": null, "momentum": 0.99, "center": true}, "inbound_nodes": [[["conv2d_26", 0, 0, {}]]], "name": "batch_normalization_v1_26"}, {"class_name": "BatchNormalization", "config": {"beta_constraint": null, "gamma_initializer": {"class_name": "Ones", "config": {"dtype": "float32"}}, "moving_mean_initializer": {"class_name": "Zeros", "config": {"dtype": "float32"}}, "name": "batch_normalization_v1_29", "dtype": "float32", "trainable": false, "moving_variance_initializer": {"class_name": "Ones", "config": {"dtype": "float32"}}, "beta_initializer": {"class_name": "Zeros", "config": {"dtype": "float32"}}, "scale": false, "axis": [3], "epsilon": 0.001, "gamma_constraint": null, "gamma_regularizer": null, "beta_regularizer": null, "momentum": 0.99, "center": true}, "inbound_nodes": [[["conv2d_29", 0, 0, {}]]], "name": "batch_normalization_v1_29"}, {"class_name": "Activation", "config": {"dtype": "float32", "activation": "relu", "trainable": false, "name": "activation_26"}, "inbound_nodes": [[["batch_normalization_v1_26", 0, 0, {}]]], "name": "activation_26"}, {"class_name": "Activation", "config": {"dtype": "float32", "activation": "relu", "trainable": false, "name": "activation_29"}, "inbound_nodes": [[["batch_normalization_v1_29", 0, 0, {}]]], "name": "activation_29"}, {"class_name": "MaxPooling2D", "config": {"name": "max_pooling2d_2", "dtype": "float32", "trainable": false, "data_format": "channels_last", "pool_size": [3, 3], "padding": "valid", "strides": [2, 2]}, "inbound_nodes": [[["mixed2", 0, 0, {}]]], "name": "max_pooling2d_2"}, {"class_name": "Concatenate", "config": {"dtype": "float32", "trainable": false, "name": "mixed3", "axis": 3}, "inbound_nodes": [[["activation_26", 0, 0, {}], ["activation_29", 0, 0, {}], ["max_pooling2d_2", 0, 0, {}]]], "name": "mixed3"}, {"class_name": "Conv2D", "config": {"kernel_initializer": {"class_name": "GlorotUniform", "config": {"dtype": "float32", "seed": null}}, "name": "conv2d_34", "kernel_constraint": null, "bias_regularizer": null, "bias_constraint": null, "dtype": "float32", "activation": "linear", "trainable": false, "data_format": "channels_last", "padding": "same", "strides": [1, 1], "dilation_rate": [1, 1], "kernel_regularizer": null, "filters": 128, "bias_initializer": {"class_name": "Zeros", "config": {"dtype": "float32"}}, "use_bias": false, "activity_regularizer": null, "kernel_size": [1, 1]}, "inbound_nodes": [[["mixed3", 0, 0, {}]]], "name": "conv2d_34"}, {"class_name": "BatchNormalization", "config": {"beta_constraint": null, "gamma_initializer": {"class_name": "Ones", "config": {"dtype": "float32"}}, "moving_mean_initializer": {"class_name": "Zeros", "config": {"dtype": "float32"}}, "name": "batch_normalization_v1_34", "dtype": "float32", "trainable": false, "moving_variance_initializer": {"class_name": "Ones", "config": {"dtype": "float32"}}, "beta_initializer": {"class_name": "Zeros", "config": {"dtype": "float32"}}, "scale": false, "axis": [3], "epsilon": 0.001, "gamma_constraint": null, "gamma_regularizer": null, "beta_regularizer": null, "momentum": 0.99, "center": true}, "inbound_nodes": [[["conv2d_34", 0, 0, {}]]], "name": "batch_normalization_v1_34"}, {"class_name": "Activation", "config": {"dtype": "float32", "activation": "relu", "trainable": false, "name": "activation_34"}, "inbound_nodes": [[["batch_normalization_v1_34", 0, 0, {}]]], "name": "activation_34"}, {"class_name": "Conv2D", "config": {"kernel_initializer": {"class_name": "GlorotUniform", "config": {"dtype": "float32", "seed": null}}, "name": "conv2d_35", "kernel_constraint": null, "bias_regularizer": null, "bias_constraint": null, "dtype": "float32", "activation": "linear", "trainable": false, "data_format": "channels_last", "padding": "same", "strides": [1, 1], "dilation_rate": [1, 1], "kernel_regularizer": null, "filters": 128, "bias_initializer": {"class_name": "Zeros", "config": {"dtype": "float32"}}, "use_bias": false, "activity_regularizer": null, "kernel_size": [7, 1]}, "inbound_nodes": [[["activation_34", 0, 0, {}]]], "name": "conv2d_35"}, {"class_name": "BatchNormalization", "config": {"beta_constraint": null, "gamma_initializer": {"class_name": "Ones", "config": {"dtype": "float32"}}, "moving_mean_initializer": {"class_name": "Zeros", "config": {"dtype": "float32"}}, "name": "batch_normalization_v1_35", "dtype": "float32", "trainable": false, "moving_variance_initializer": {"class_name": "Ones", "config": {"dtype": "float32"}}, "beta_initializer": {"class_name": "Zeros", "config": {"dtype": "float32"}}, "scale": false, "axis": [3], "epsilon": 0.001, "gamma_constraint": null, "gamma_regularizer": null, "beta_regularizer": null, "momentum": 0.99, "center": true}, "inbound_nodes": [[["conv2d_35", 0, 0, {}]]], "name": "batch_normalization_v1_35"}, {"class_name": "Activation", "config": {"dtype": "float32", "activation": "relu", "trainable": false, "name": "activation_35"}, "inbound_nodes": [[["batch_normalization_v1_35", 0, 0, {}]]], "name": "activation_35"}, {"class_name": "Conv2D", "config": {"kernel_initializer": {"class_name": "GlorotUniform", "config": {"dtype": "float32", "seed": null}}, "name": "conv2d_31", "kernel_constraint": null, "bias_regularizer": null, "bias_constraint": null, "dtype": "float32", "activation": "linear", "trainable": false, "data_format": "channels_last", "padding": "same", "strides": [1, 1], "dilation_rate": [1, 1], "kernel_regularizer": null, "filters": 128, "bias_initializer": {"class_name": "Zeros", "config": {"dtype": "float32"}}, "use_bias": false, "activity_regularizer": null, "kernel_size": [1, 1]}, "inbound_nodes": [[["mixed3", 0, 0, {}]]], "name": "conv2d_31"}, {"class_name": "Conv2D", "config": {"kernel_initializer": {"class_name": "GlorotUniform", "config": {"dtype": "float32", "seed": null}}, "name": "conv2d_36", "kernel_constraint": null, "bias_regularizer": null, "bias_constraint": null, "dtype": "float32", "activation": "linear", "trainable": false, "data_format": "channels_last", "padding": "same", "strides": [1, 1], "dilation_rate": [1, 1], "kernel_regularizer": null, "filters": 128, "bias_initializer": {"class_name": "Zeros", "config": {"dtype": "float32"}}, "use_bias": false, "activity_regularizer": null, "kernel_size": [1, 7]}, "inbound_nodes": [[["activation_35", 0, 0, {}]]], "name": "conv2d_36"}, {"class_name": "BatchNormalization", "config": {"beta_constraint": null, "gamma_initializer": {"class_name": "Ones", "config": {"dtype": "float32"}}, "moving_mean_initializer": {"class_name": "Zeros", "config": {"dtype": "float32"}}, "name": "batch_normalization_v1_31", "dtype": "float32", "trainable": false, "moving_variance_initializer": {"class_name": "Ones", "config": {"dtype": "float32"}}, "beta_initializer": {"class_name": "Zeros", "config": {"dtype": "float32"}}, "scale": false, "axis": [3], "epsilon": 0.001, "gamma_constraint": null, "gamma_regularizer": null, "beta_regularizer": null, "momentum": 0.99, "center": true}, "inbound_nodes": [[["conv2d_31", 0, 0, {}]]], "name": "batch_normalization_v1_31"}, {"class_name": "BatchNormalization", "config": {"beta_constraint": null, "gamma_initializer": {"class_name": "Ones", "config": {"dtype": "float32"}}, "moving_mean_initializer": {"class_name": "Zeros", "config": {"dtype": "float32"}}, "name": "batch_normalization_v1_36", "dtype": "float32", "trainable": false, "moving_variance_initializer": {"class_name": "Ones", "config": {"dtype": "float32"}}, "beta_initializer": {"class_name": "Zeros", "config": {"dtype": "float32"}}, "scale": false, "axis": [3], "epsilon": 0.001, "gamma_constraint": null, "gamma_regularizer": null, "beta_regularizer": null, "momentum": 0.99, "center": true}, "inbound_nodes": [[["conv2d_36", 0, 0, {}]]], "name": "batch_normalization_v1_36"}, {"class_name": "Activation", "config": {"dtype": "float32", "activation": "relu", "trainable": false, "name": "activation_31"}, "inbound_nodes": [[["batch_normalization_v1_31", 0, 0, {}]]], "name": "activation_31"}, {"class_name": "Activation", "config": {"dtype": "float32", "activation": "relu", "trainable": false, "name": "activation_36"}, "inbound_nodes": [[["batch_normalization_v1_36", 0, 0, {}]]], "name": "activation_36"}, {"class_name": "Conv2D", "config": {"kernel_initializer": {"class_name": "GlorotUniform", "config": {"dtype": "float32", "seed": null}}, "name": "conv2d_32", "kernel_constraint": null, "bias_regularizer": null, "bias_constraint": null, "dtype": "float32", "activation": "linear", "trainable": false, "data_format": "channels_last", "padding": "same", "strides": [1, 1], "dilation_rate": [1, 1], "kernel_regularizer": null, "filters": 128, "bias_initializer": {"class_name": "Zeros", "config": {"dtype": "float32"}}, "use_bias": false, "activity_regularizer": null, "kernel_size": [1, 7]}, "inbound_nodes": [[["activation_31", 0, 0, {}]]], "name": "conv2d_32"}, {"class_name": "Conv2D", "config": {"kernel_initializer": {"class_name": "GlorotUniform", "config": {"dtype": "float32", "seed": null}}, "name": "conv2d_37", "kernel_constraint": null, "bias_regularizer": null, "bias_constraint": null, "dtype": "float32", "activation": "linear", "trainable": false, "data_format": "channels_last", "padding": "same", "strides": [1, 1], "dilation_rate": [1, 1], "kernel_regularizer": null, "filters": 128, "bias_initializer": {"class_name": "Zeros", "config": {"dtype": "float32"}}, "use_bias": false, "activity_regularizer": null, "kernel_size": [7, 1]}, "inbound_nodes": [[["activation_36", 0, 0, {}]]], "name": "conv2d_37"}, {"class_name": "BatchNormalization", "config": {"beta_constraint": null, "gamma_initializer": {"class_name": "Ones", "config": {"dtype": "float32"}}, "moving_mean_initializer": {"class_name": "Zeros", "config": {"dtype": "float32"}}, "name": "batch_normalization_v1_32", "dtype": "float32", "trainable": false, "moving_variance_initializer": {"class_name": "Ones", "config": {"dtype": "float32"}}, "beta_initializer": {"class_name": "Zeros", "config": {"dtype": "float32"}}, "scale": false, "axis": [3], "epsilon": 0.001, "gamma_constraint": null, "gamma_regularizer": null, "beta_regularizer": null, "momentum": 0.99, "center": true}, "inbound_nodes": [[["conv2d_32", 0, 0, {}]]], "name": "batch_normalization_v1_32"}, {"class_name": "BatchNormalization", "config": {"beta_constraint": null, "gamma_initializer": {"class_name": "Ones", "config": {"dtype": "float32"}}, "moving_mean_initializer": {"class_name": "Zeros", "config": {"dtype": "float32"}}, "name": "batch_normalization_v1_37", "dtype": "float32", "trainable": false, "moving_variance_initializer": {"class_name": "Ones", "config": {"dtype": "float32"}}, "beta_initializer": {"class_name": "Zeros", "config": {"dtype": "float32"}}, "scale": false, "axis": [3], "epsilon": 0.001, "gamma_constraint": null, "gamma_regularizer": null, "beta_regularizer": null, "momentum": 0.99, "center": true}, "inbound_nodes": [[["conv2d_37", 0, 0, {}]]], "name": "batch_normalization_v1_37"}, {"class_name": "Activation", "config": {"dtype": "float32", "activation": "relu", "trainable": false, "name": "activation_32"}, "inbound_nodes": [[["batch_normalization_v1_32", 0, 0, {}]]], "name": "activation_32"}, {"class_name": "Activation", "config": {"dtype": "float32", "activation": "relu", "trainable": false, "name": "activation_37"}, "inbound_nodes": [[["batch_normalization_v1_37", 0, 0, {}]]], "name": "activation_37"}, {"class_name": "AveragePooling2D", "config": {"name": "average_pooling2d_3", "dtype": "float32", "trainable": false, "data_format": "channels_last", "pool_size": [3, 3], "padding": "same", "strides": [1, 1]}, "inbound_nodes": [[["mixed3", 0, 0, {}]]], "name": "average_pooling2d_3"}, {"class_name": "Conv2D", "config": {"kernel_initializer": {"class_name": "GlorotUniform", "config": {"dtype": "float32", "seed": null}}, "name": "conv2d_30", "kernel_constraint": null, "bias_regularizer": null, "bias_constraint": null, "dtype": "float32", "activation": "linear", "trainable": false, "data_format": "channels_last", "padding": "same", "strides": [1, 1], "dilation_rate": [1, 1], "kernel_regularizer": null, "filters": 192, "bias_initializer": {"class_name": "Zeros", "config": {"dtype": "float32"}}, "use_bias": false, "activity_regularizer": null, "kernel_size": [1, 1]}, "inbound_nodes": [[["mixed3", 0, 0, {}]]], "name": "conv2d_30"}, {"class_name": "Conv2D", "config": {"kernel_initializer": {"class_name": "GlorotUniform", "config": {"dtype": "float32", "seed": null}}, "name": "conv2d_33", "kernel_constraint": null, "bias_regularizer": null, "bias_constraint": null, "dtype": "float32", "activation": "linear", "trainable": false, "data_format": "channels_last", "padding": "same", "strides": [1, 1], "dilation_rate": [1, 1], "kernel_regularizer": null, "filters": 192, "bias_initializer": {"class_name": "Zeros", "config": {"dtype": "float32"}}, "use_bias": false, "activity_regularizer": null, "kernel_size": [7, 1]}, "inbound_nodes": [[["activation_32", 0, 0, {}]]], "name": "conv2d_33"}, {"class_name": "Conv2D", "config": {"kernel_initializer": {"class_name": "GlorotUniform", "config": {"dtype": "float32", "seed": null}}, "name": "conv2d_38", "kernel_constraint": null, "bias_regularizer": null, "bias_constraint": null, "dtype": "float32", "activation": "linear", "trainable": false, "data_format": "channels_last", "padding": "same", "strides": [1, 1], "dilation_rate": [1, 1], "kernel_regularizer": null, "filters": 192, "bias_initializer": {"class_name": "Zeros", "config": {"dtype": "float32"}}, "use_bias": false, "activity_regularizer": null, "kernel_size": [1, 7]}, "inbound_nodes": [[["activation_37", 0, 0, {}]]], "name": "conv2d_38"}, {"class_name": "Conv2D", "config": {"kernel_initializer": {"class_name": "GlorotUniform", "config": {"dtype": "float32", "seed": null}}, "name": "conv2d_39", "kernel_constraint": null, "bias_regularizer": null, "bias_constraint": null, "dtype": "float32", "activation": "linear", "trainable": false, "data_format": "channels_last", "padding": "same", "strides": [1, 1], "dilation_rate": [1, 1], "kernel_regularizer": null, "filters": 192, "bias_initializer": {"class_name": "Zeros", "config": {"dtype": "float32"}}, "use_bias": false, "activity_regularizer": null, "kernel_size": [1, 1]}, "inbound_nodes": [[["average_pooling2d_3", 0, 0, {}]]], "name": "conv2d_39"}, {"class_name": "BatchNormalization", "config": {"beta_constraint": null, "gamma_initializer": {"class_name": "Ones", "config": {"dtype": "float32"}}, "moving_mean_initializer": {"class_name": "Zeros", "config": {"dtype": "float32"}}, "name": "batch_normalization_v1_30", "dtype": "float32", "trainable": false, "moving_variance_initializer": {"class_name": "Ones", "config": {"dtype": "float32"}}, "beta_initializer": {"class_name": "Zeros", "config": {"dtype": "float32"}}, "scale": false, "axis": [3], "epsilon": 0.001, "gamma_constraint": null, "gamma_regularizer": null, "beta_regularizer": null, "momentum": 0.99, "center": true}, "inbound_nodes": [[["conv2d_30", 0, 0, {}]]], "name": "batch_normalization_v1_30"}, {"class_name": "BatchNormalization", "config": {"beta_constraint": null, "gamma_initializer": {"class_name": "Ones", "config": {"dtype": "float32"}}, "moving_mean_initializer": {"class_name": "Zeros", "config": {"dtype": "float32"}}, "name": "batch_normalization_v1_33", "dtype": "float32", "trainable": false, "moving_variance_initializer": {"class_name": "Ones", "config": {"dtype": "float32"}}, "beta_initializer": {"class_name": "Zeros", "config": {"dtype": "float32"}}, "scale": false, "axis": [3], "epsilon": 0.001, "gamma_constraint": null, "gamma_regularizer": null, "beta_regularizer": null, "momentum": 0.99, "center": true}, "inbound_nodes": [[["conv2d_33", 0, 0, {}]]], "name": "batch_normalization_v1_33"}, {"class_name": "BatchNormalization", "config": {"beta_constraint": null, "gamma_initializer": {"class_name": "Ones", "config": {"dtype": "float32"}}, "moving_mean_initializer": {"class_name": "Zeros", "config": {"dtype": "float32"}}, "name": "batch_normalization_v1_38", "dtype": "float32", "trainable": false, "moving_variance_initializer": {"class_name": "Ones", "config": {"dtype": "float32"}}, "beta_initializer": {"class_name": "Zeros", "config": {"dtype": "float32"}}, "scale": false, "axis": [3], "epsilon": 0.001, "gamma_constraint": null, "gamma_regularizer": null, "beta_regularizer": null, "momentum": 0.99, "center": true}, "inbound_nodes": [[["conv2d_38", 0, 0, {}]]], "name": "batch_normalization_v1_38"}, {"class_name": "BatchNormalization", "config": {"beta_constraint": null, "gamma_initializer": {"class_name": "Ones", "config": {"dtype": "float32"}}, "moving_mean_initializer": {"class_name": "Zeros", "config": {"dtype": "float32"}}, "name": "batch_normalization_v1_39", "dtype": "float32", "trainable": false, "moving_variance_initializer": {"class_name": "Ones", "config": {"dtype": "float32"}}, "beta_initializer": {"class_name": "Zeros", "config": {"dtype": "float32"}}, "scale": false, "axis": [3], "epsilon": 0.001, "gamma_constraint": null, "gamma_regularizer": null, "beta_regularizer": null, "momentum": 0.99, "center": true}, "inbound_nodes": [[["conv2d_39", 0, 0, {}]]], "name": "batch_normalization_v1_39"}, {"class_name": "Activation", "config": {"dtype": "float32", "activation": "relu", "trainable": false, "name": "activation_30"}, "inbound_nodes": [[["batch_normalization_v1_30", 0, 0, {}]]], "name": "activation_30"}, {"class_name": "Activation", "config": {"dtype": "float32", "activation": "relu", "trainable": false, "name": "activation_33"}, "inbound_nodes": [[["batch_normalization_v1_33", 0, 0, {}]]], "name": "activation_33"}, {"class_name": "Activation", "config": {"dtype": "float32", "activation": "relu", "trainable": false, "name": "activation_38"}, "inbound_nodes": [[["batch_normalization_v1_38", 0, 0, {}]]], "name": "activation_38"}, {"class_name": "Activation", "config": {"dtype": "float32", "activation": "relu", "trainable": false, "name": "activation_39"}, "inbound_nodes": [[["batch_normalization_v1_39", 0, 0, {}]]], "name": "activation_39"}, {"class_name": "Concatenate", "config": {"dtype": "float32", "trainable": false, "name": "mixed4", "axis": 3}, "inbound_nodes": [[["activation_30", 0, 0, {}], ["activation_33", 0, 0, {}], ["activation_38", 0, 0, {}], ["activation_39", 0, 0, {}]]], "name": "mixed4"}, {"class_name": "Conv2D", "config": {"kernel_initializer": {"class_name": "GlorotUniform", "config": {"dtype": "float32", "seed": null}}, "name": "conv2d_44", "kernel_constraint": null, "bias_regularizer": null, "bias_constraint": null, "dtype": "float32", "activation": "linear", "trainable": false, "data_format": "channels_last", "padding": "same", "strides": [1, 1], "dilation_rate": [1, 1], "kernel_regularizer": null, "filters": 160, "bias_initializer": {"class_name": "Zeros", "config": {"dtype": "float32"}}, "use_bias": false, "activity_regularizer": null, "kernel_size": [1, 1]}, "inbound_nodes": [[["mixed4", 0, 0, {}]]], "name": "conv2d_44"}, {"class_name": "BatchNormalization", "config": {"beta_constraint": null, "gamma_initializer": {"class_name": "Ones", "config": {"dtype": "float32"}}, "moving_mean_initializer": {"class_name": "Zeros", "config": {"dtype": "float32"}}, "name": "batch_normalization_v1_44", "dtype": "float32", "trainable": false, "moving_variance_initializer": {"class_name": "Ones", "config": {"dtype": "float32"}}, "beta_initializer": {"class_name": "Zeros", "config": {"dtype": "float32"}}, "scale": false, "axis": [3], "epsilon": 0.001, "gamma_constraint": null, "gamma_regularizer": null, "beta_regularizer": null, "momentum": 0.99, "center": true}, "inbound_nodes": [[["conv2d_44", 0, 0, {}]]], "name": "batch_normalization_v1_44"}, {"class_name": "Activation", "config": {"dtype": "float32", "activation": "relu", "trainable": false, "name": "activation_44"}, "inbound_nodes": [[["batch_normalization_v1_44", 0, 0, {}]]], "name": "activation_44"}, {"class_name": "Conv2D", "config": {"kernel_initializer": {"class_name": "GlorotUniform", "config": {"dtype": "float32", "seed": null}}, "name": "conv2d_45", "kernel_constraint": null, "bias_regularizer": null, "bias_constraint": null, "dtype": "float32", "activation": "linear", "trainable": false, "data_format": "channels_last", "padding": "same", "strides": [1, 1], "dilation_rate": [1, 1], "kernel_regularizer": null, "filters": 160, "bias_initializer": {"class_name": "Zeros", "config": {"dtype": "float32"}}, "use_bias": false, "activity_regularizer": null, "kernel_size": [7, 1]}, "inbound_nodes": [[["activation_44", 0, 0, {}]]], "name": "conv2d_45"}, {"class_name": "BatchNormalization", "config": {"beta_constraint": null, "gamma_initializer": {"class_name": "Ones", "config": {"dtype": "float32"}}, "moving_mean_initializer": {"class_name": "Zeros", "config": {"dtype": "float32"}}, "name": "batch_normalization_v1_45", "dtype": "float32", "trainable": false, "moving_variance_initializer": {"class_name": "Ones", "config": {"dtype": "float32"}}, "beta_initializer": {"class_name": "Zeros", "config": {"dtype": "float32"}}, "scale": false, "axis": [3], "epsilon": 0.001, "gamma_constraint": null, "gamma_regularizer": null, "beta_regularizer": null, "momentum": 0.99, "center": true}, "inbound_nodes": [[["conv2d_45", 0, 0, {}]]], "name": "batch_normalization_v1_45"}, {"class_name": "Activation", "config": {"dtype": "float32", "activation": "relu", "trainable": false, "name": "activation_45"}, "inbound_nodes": [[["batch_normalization_v1_45", 0, 0, {}]]], "name": "activation_45"}, {"class_name": "Conv2D", "config": {"kernel_initializer": {"class_name": "GlorotUniform", "config": {"dtype": "float32", "seed": null}}, "name": "conv2d_41", "kernel_constraint": null, "bias_regularizer": null, "bias_constraint": null, "dtype": "float32", "activation": "linear", "trainable": false, "data_format": "channels_last", "padding": "same", "strides": [1, 1], "dilation_rate": [1, 1], "kernel_regularizer": null, "filters": 160, "bias_initializer": {"class_name": "Zeros", "config": {"dtype": "float32"}}, "use_bias": false, "activity_regularizer": null, "kernel_size": [1, 1]}, "inbound_nodes": [[["mixed4", 0, 0, {}]]], "name": "conv2d_41"}, {"class_name": "Conv2D", "config": {"kernel_initializer": {"class_name": "GlorotUniform", "config": {"dtype": "float32", "seed": null}}, "name": "conv2d_46", "kernel_constraint": null, "bias_regularizer": null, "bias_constraint": null, "dtype": "float32", "activation": "linear", "trainable": false, "data_format": "channels_last", "padding": "same", "strides": [1, 1], "dilation_rate": [1, 1], "kernel_regularizer": null, "filters": 160, "bias_initializer": {"class_name": "Zeros", "config": {"dtype": "float32"}}, "use_bias": false, "activity_regularizer": null, "kernel_size": [1, 7]}, "inbound_nodes": [[["activation_45", 0, 0, {}]]], "name": "conv2d_46"}, {"class_name": "BatchNormalization", "config": {"beta_constraint": null, "gamma_initializer": {"class_name": "Ones", "config": {"dtype": "float32"}}, "moving_mean_initializer": {"class_name": "Zeros", "config": {"dtype": "float32"}}, "name": "batch_normalization_v1_41", "dtype": "float32", "trainable": false, "moving_variance_initializer": {"class_name": "Ones", "config": {"dtype": "float32"}}, "beta_initializer": {"class_name": "Zeros", "config": {"dtype": "float32"}}, "scale": false, "axis": [3], "epsilon": 0.001, "gamma_constraint": null, "gamma_regularizer": null, "beta_regularizer": null, "momentum": 0.99, "center": true}, "inbound_nodes": [[["conv2d_41", 0, 0, {}]]], "name": "batch_normalization_v1_41"}, {"class_name": "BatchNormalization", "config": {"beta_constraint": null, "gamma_initializer": {"class_name": "Ones", "config": {"dtype": "float32"}}, "moving_mean_initializer": {"class_name": "Zeros", "config": {"dtype": "float32"}}, "name": "batch_normalization_v1_46", "dtype": "float32", "trainable": false, "moving_variance_initializer": {"class_name": "Ones", "config": {"dtype": "float32"}}, "beta_initializer": {"class_name": "Zeros", "config": {"dtype": "float32"}}, "scale": false, "axis": [3], "epsilon": 0.001, "gamma_constraint": null, "gamma_regularizer": null, "beta_regularizer": null, "momentum": 0.99, "center": true}, "inbound_nodes": [[["conv2d_46", 0, 0, {}]]], "name": "batch_normalization_v1_46"}, {"class_name": "Activation", "config": {"dtype": "float32", "activation": "relu", "trainable": false, "name": "activation_41"}, "inbound_nodes": [[["batch_normalization_v1_41", 0, 0, {}]]], "name": "activation_41"}, {"class_name": "Activation", "config": {"dtype": "float32", "activation": "relu", "trainable": false, "name": "activation_46"}, "inbound_nodes": [[["batch_normalization_v1_46", 0, 0, {}]]], "name": "activation_46"}, {"class_name": "Conv2D", "config": {"kernel_initializer": {"class_name": "GlorotUniform", "config": {"dtype": "float32", "seed": null}}, "name": "conv2d_42", "kernel_constraint": null, "bias_regularizer": null, "bias_constraint": null, "dtype": "float32", "activation": "linear", "trainable": false, "data_format": "channels_last", "padding": "same", "strides": [1, 1], "dilation_rate": [1, 1], "kernel_regularizer": null, "filters": 160, "bias_initializer": {"class_name": "Zeros", "config": {"dtype": "float32"}}, "use_bias": false, "activity_regularizer": null, "kernel_size": [1, 7]}, "inbound_nodes": [[["activation_41", 0, 0, {}]]], "name": "conv2d_42"}, {"class_name": "Conv2D", "config": {"kernel_initializer": {"class_name": "GlorotUniform", "config": {"dtype": "float32", "seed": null}}, "name": "conv2d_47", "kernel_constraint": null, "bias_regularizer": null, "bias_constraint": null, "dtype": "float32", "activation": "linear", "trainable": false, "data_format": "channels_last", "padding": "same", "strides": [1, 1], "dilation_rate": [1, 1], "kernel_regularizer": null, "filters": 160, "bias_initializer": {"class_name": "Zeros", "config": {"dtype": "float32"}}, "use_bias": false, "activity_regularizer": null, "kernel_size": [7, 1]}, "inbound_nodes": [[["activation_46", 0, 0, {}]]], "name": "conv2d_47"}, {"class_name": "BatchNormalization", "config": {"beta_constraint": null, "gamma_initializer": {"class_name": "Ones", "config": {"dtype": "float32"}}, "moving_mean_initializer": {"class_name": "Zeros", "config": {"dtype": "float32"}}, "name": "batch_normalization_v1_42", "dtype": "float32", "trainable": false, "moving_variance_initializer": {"class_name": "Ones", "config": {"dtype": "float32"}}, "beta_initializer": {"class_name": "Zeros", "config": {"dtype": "float32"}}, "scale": false, "axis": [3], "epsilon": 0.001, "gamma_constraint": null, "gamma_regularizer": null, "beta_regularizer": null, "momentum": 0.99, "center": true}, "inbound_nodes": [[["conv2d_42", 0, 0, {}]]], "name": "batch_normalization_v1_42"}, {"class_name": "BatchNormalization", "config": {"beta_constraint": null, "gamma_initializer": {"class_name": "Ones", "config": {"dtype": "float32"}}, "moving_mean_initializer": {"class_name": "Zeros", "config": {"dtype": "float32"}}, "name": "batch_normalization_v1_47", "dtype": "float32", "trainable": false, "moving_variance_initializer": {"class_name": "Ones", "config": {"dtype": "float32"}}, "beta_initializer": {"class_name": "Zeros", "config": {"dtype": "float32"}}, "scale": false, "axis": [3], "epsilon": 0.001, "gamma_constraint": null, "gamma_regularizer": null, "beta_regularizer": null, "momentum": 0.99, "center": true}, "inbound_nodes": [[["conv2d_47", 0, 0, {}]]], "name": "batch_normalization_v1_47"}, {"class_name": "Activation", "config": {"dtype": "float32", "activation": "relu", "trainable": false, "name": "activation_42"}, "inbound_nodes": [[["batch_normalization_v1_42", 0, 0, {}]]], "name": "activation_42"}, {"class_name": "Activation", "config": {"dtype": "float32", "activation": "relu", "trainable": false, "name": "activation_47"}, "inbound_nodes": [[["batch_normalization_v1_47", 0, 0, {}]]], "name": "activation_47"}, {"class_name": "AveragePooling2D", "config": {"name": "average_pooling2d_4", "dtype": "float32", "trainable": false, "data_format": "channels_last", "pool_size": [3, 3], "padding": "same", "strides": [1, 1]}, "inbound_nodes": [[["mixed4", 0, 0, {}]]], "name": "average_pooling2d_4"}, {"class_name": "Conv2D", "config": {"kernel_initializer": {"class_name": "GlorotUniform", "config": {"dtype": "float32", "seed": null}}, "name": "conv2d_40", "kernel_constraint": null, "bias_regularizer": null, "bias_constraint": null, "dtype": "float32", "activation": "linear", "trainable": false, "data_format": "channels_last", "padding": "same", "strides": [1, 1], "dilation_rate": [1, 1], "kernel_regularizer": null, "filters": 192, "bias_initializer": {"class_name": "Zeros", "config": {"dtype": "float32"}}, "use_bias": false, "activity_regularizer": null, "kernel_size": [1, 1]}, "inbound_nodes": [[["mixed4", 0, 0, {}]]], "name": "conv2d_40"}, {"class_name": "Conv2D", "config": {"kernel_initializer": {"class_name": "GlorotUniform", "config": {"dtype": "float32", "seed": null}}, "name": "conv2d_43", "kernel_constraint": null, "bias_regularizer": null, "bias_constraint": null, "dtype": "float32", "activation": "linear", "trainable": false, "data_format": "channels_last", "padding": "same", "strides": [1, 1], "dilation_rate": [1, 1], "kernel_regularizer": null, "filters": 192, "bias_initializer": {"class_name": "Zeros", "config": {"dtype": "float32"}}, "use_bias": false, "activity_regularizer": null, "kernel_size": [7, 1]}, "inbound_nodes": [[["activation_42", 0, 0, {}]]], "name": "conv2d_43"}, {"class_name": "Conv2D", "config": {"kernel_initializer": {"class_name": "GlorotUniform", "config": {"dtype": "float32", "seed": null}}, "name": "conv2d_48", "kernel_constraint": null, "bias_regularizer": null, "bias_constraint": null, "dtype": "float32", "activation": "linear", "trainable": false, "data_format": "channels_last", "padding": "same", "strides": [1, 1], "dilation_rate": [1, 1], "kernel_regularizer": null, "filters": 192, "bias_initializer": {"class_name": "Zeros", "config": {"dtype": "float32"}}, "use_bias": false, "activity_regularizer": null, "kernel_size": [1, 7]}, "inbound_nodes": [[["activation_47", 0, 0, {}]]], "name": "conv2d_48"}, {"class_name": "Conv2D", "config": {"kernel_initializer": {"class_name": "GlorotUniform", "config": {"dtype": "float32", "seed": null}}, "name": "conv2d_49", "kernel_constraint": null, "bias_regularizer": null, "bias_constraint": null, "dtype": "float32", "activation": "linear", "trainable": false, "data_format": "channels_last", "padding": "same", "strides": [1, 1], "dilation_rate": [1, 1], "kernel_regularizer": null, "filters": 192, "bias_initializer": {"class_name": "Zeros", "config": {"dtype": "float32"}}, "use_bias": false, "activity_regularizer": null, "kernel_size": [1, 1]}, "inbound_nodes": [[["average_pooling2d_4", 0, 0, {}]]], "name": "conv2d_49"}, {"class_name": "BatchNormalization", "config": {"beta_constraint": null, "gamma_initializer": {"class_name": "Ones", "config": {"dtype": "float32"}}, "moving_mean_initializer": {"class_name": "Zeros", "config": {"dtype": "float32"}}, "name": "batch_normalization_v1_40", "dtype": "float32", "trainable": false, "moving_variance_initializer": {"class_name": "Ones", "config": {"dtype": "float32"}}, "beta_initializer": {"class_name": "Zeros", "config": {"dtype": "float32"}}, "scale": false, "axis": [3], "epsilon": 0.001, "gamma_constraint": null, "gamma_regularizer": null, "beta_regularizer": null, "momentum": 0.99, "center": true}, "inbound_nodes": [[["conv2d_40", 0, 0, {}]]], "name": "batch_normalization_v1_40"}, {"class_name": "BatchNormalization", "config": {"beta_constraint": null, "gamma_initializer": {"class_name": "Ones", "config": {"dtype": "float32"}}, "moving_mean_initializer": {"class_name": "Zeros", "config": {"dtype": "float32"}}, "name": "batch_normalization_v1_43", "dtype": "float32", "trainable": false, "moving_variance_initializer": {"class_name": "Ones", "config": {"dtype": "float32"}}, "beta_initializer": {"class_name": "Zeros", "config": {"dtype": "float32"}}, "scale": false, "axis": [3], "epsilon": 0.001, "gamma_constraint": null, "gamma_regularizer": null, "beta_regularizer": null, "momentum": 0.99, "center": true}, "inbound_nodes": [[["conv2d_43", 0, 0, {}]]], "name": "batch_normalization_v1_43"}, {"class_name": "BatchNormalization", "config": {"beta_constraint": null, "gamma_initializer": {"class_name": "Ones", "config": {"dtype": "float32"}}, "moving_mean_initializer": {"class_name": "Zeros", "config": {"dtype": "float32"}}, "name": "batch_normalization_v1_48", "dtype": "float32", "trainable": false, "moving_variance_initializer": {"class_name": "Ones", "config": {"dtype": "float32"}}, "beta_initializer": {"class_name": "Zeros", "config": {"dtype": "float32"}}, "scale": false, "axis": [3], "epsilon": 0.001, "gamma_constraint": null, "gamma_regularizer": null, "beta_regularizer": null, "momentum": 0.99, "center": true}, "inbound_nodes": [[["conv2d_48", 0, 0, {}]]], "name": "batch_normalization_v1_48"}, {"class_name": "BatchNormalization", "config": {"beta_constraint": null, "gamma_initializer": {"class_name": "Ones", "config": {"dtype": "float32"}}, "moving_mean_initializer": {"class_name": "Zeros", "config": {"dtype": "float32"}}, "name": "batch_normalization_v1_49", "dtype": "float32", "trainable": false, "moving_variance_initializer": {"class_name": "Ones", "config": {"dtype": "float32"}}, "beta_initializer": {"class_name": "Zeros", "config": {"dtype": "float32"}}, "scale": false, "axis": [3], "epsilon": 0.001, "gamma_constraint": null, "gamma_regularizer": null, "beta_regularizer": null, "momentum": 0.99, "center": true}, "inbound_nodes": [[["conv2d_49", 0, 0, {}]]], "name": "batch_normalization_v1_49"}, {"class_name": "Activation", "config": {"dtype": "float32", "activation": "relu", "trainable": false, "name": "activation_40"}, "inbound_nodes": [[["batch_normalization_v1_40", 0, 0, {}]]], "name": "activation_40"}, {"class_name": "Activation", "config": {"dtype": "float32", "activation": "relu", "trainable": false, "name": "activation_43"}, "inbound_nodes": [[["batch_normalization_v1_43", 0, 0, {}]]], "name": "activation_43"}, {"class_name": "Activation", "config": {"dtype": "float32", "activation": "relu", "trainable": false, "name": "activation_48"}, "inbound_nodes": [[["batch_normalization_v1_48", 0, 0, {}]]], "name": "activation_48"}, {"class_name": "Activation", "config": {"dtype": "float32", "activation": "relu", "trainable": false, "name": "activation_49"}, "inbound_nodes": [[["batch_normalization_v1_49", 0, 0, {}]]], "name": "activation_49"}, {"class_name": "Concatenate", "config": {"dtype": "float32", "trainable": false, "name": "mixed5", "axis": 3}, "inbound_nodes": [[["activation_40", 0, 0, {}], ["activation_43", 0, 0, {}], ["activation_48", 0, 0, {}], ["activation_49", 0, 0, {}]]], "name": "mixed5"}, {"class_name": "Conv2D", "config": {"kernel_initializer": {"class_name": "GlorotUniform", "config": {"dtype": "float32", "seed": null}}, "name": "conv2d_54", "kernel_constraint": null, "bias_regularizer": null, "bias_constraint": null, "dtype": "float32", "activation": "linear", "trainable": false, "data_format": "channels_last", "padding": "same", "strides": [1, 1], "dilation_rate": [1, 1], "kernel_regularizer": null, "filters": 160, "bias_initializer": {"class_name": "Zeros", "config": {"dtype": "float32"}}, "use_bias": false, "activity_regularizer": null, "kernel_size": [1, 1]}, "inbound_nodes": [[["mixed5", 0, 0, {}]]], "name": "conv2d_54"}, {"class_name": "BatchNormalization", "config": {"beta_constraint": null, "gamma_initializer": {"class_name": "Ones", "config": {"dtype": "float32"}}, "moving_mean_initializer": {"class_name": "Zeros", "config": {"dtype": "float32"}}, "name": "batch_normalization_v1_54", "dtype": "float32", "trainable": false, "moving_variance_initializer": {"class_name": "Ones", "config": {"dtype": "float32"}}, "beta_initializer": {"class_name": "Zeros", "config": {"dtype": "float32"}}, "scale": false, "axis": [3], "epsilon": 0.001, "gamma_constraint": null, "gamma_regularizer": null, "beta_regularizer": null, "momentum": 0.99, "center": true}, "inbound_nodes": [[["conv2d_54", 0, 0, {}]]], "name": "batch_normalization_v1_54"}, {"class_name": "Activation", "config": {"dtype": "float32", "activation": "relu", "trainable": false, "name": "activation_54"}, "inbound_nodes": [[["batch_normalization_v1_54", 0, 0, {}]]], "name": "activation_54"}, {"class_name": "Conv2D", "config": {"kernel_initializer": {"class_name": "GlorotUniform", "config": {"dtype": "float32", "seed": null}}, "name": "conv2d_55", "kernel_constraint": null, "bias_regularizer": null, "bias_constraint": null, "dtype": "float32", "activation": "linear", "trainable": false, "data_format": "channels_last", "padding": "same", "strides": [1, 1], "dilation_rate": [1, 1], "kernel_regularizer": null, "filters": 160, "bias_initializer": {"class_name": "Zeros", "config": {"dtype": "float32"}}, "use_bias": false, "activity_regularizer": null, "kernel_size": [7, 1]}, "inbound_nodes": [[["activation_54", 0, 0, {}]]], "name": "conv2d_55"}, {"class_name": "BatchNormalization", "config": {"beta_constraint": null, "gamma_initializer": {"class_name": "Ones", "config": {"dtype": "float32"}}, "moving_mean_initializer": {"class_name": "Zeros", "config": {"dtype": "float32"}}, "name": "batch_normalization_v1_55", "dtype": "float32", "trainable": false, "moving_variance_initializer": {"class_name": "Ones", "config": {"dtype": "float32"}}, "beta_initializer": {"class_name": "Zeros", "config": {"dtype": "float32"}}, "scale": false, "axis": [3], "epsilon": 0.001, "gamma_constraint": null, "gamma_regularizer": null, "beta_regularizer": null, "momentum": 0.99, "center": true}, "inbound_nodes": [[["conv2d_55", 0, 0, {}]]], "name": "batch_normalization_v1_55"}, {"class_name": "Activation", "config": {"dtype": "float32", "activation": "relu", "trainable": false, "name": "activation_55"}, "inbound_nodes": [[["batch_normalization_v1_55", 0, 0, {}]]], "name": "activation_55"}, {"class_name": "Conv2D", "config": {"kernel_initializer": {"class_name": "GlorotUniform", "config": {"dtype": "float32", "seed": null}}, "name": "conv2d_51", "kernel_constraint": null, "bias_regularizer": null, "bias_constraint": null, "dtype": "float32", "activation": "linear", "trainable": false, "data_format": "channels_last", "padding": "same", "strides": [1, 1], "dilation_rate": [1, 1], "kernel_regularizer": null, "filters": 160, "bias_initializer": {"class_name": "Zeros", "config": {"dtype": "float32"}}, "use_bias": false, "activity_regularizer": null, "kernel_size": [1, 1]}, "inbound_nodes": [[["mixed5", 0, 0, {}]]], "name": "conv2d_51"}, {"class_name": "Conv2D", "config": {"kernel_initializer": {"class_name": "GlorotUniform", "config": {"dtype": "float32", "seed": null}}, "name": "conv2d_56", "kernel_constraint": null, "bias_regularizer": null, "bias_constraint": null, "dtype": "float32", "activation": "linear", "trainable": false, "data_format": "channels_last", "padding": "same", "strides": [1, 1], "dilation_rate": [1, 1], "kernel_regularizer": null, "filters": 160, "bias_initializer": {"class_name": "Zeros", "config": {"dtype": "float32"}}, "use_bias": false, "activity_regularizer": null, "kernel_size": [1, 7]}, "inbound_nodes": [[["activation_55", 0, 0, {}]]], "name": "conv2d_56"}, {"class_name": "BatchNormalization", "config": {"beta_constraint": null, "gamma_initializer": {"class_name": "Ones", "config": {"dtype": "float32"}}, "moving_mean_initializer": {"class_name": "Zeros", "config": {"dtype": "float32"}}, "name": "batch_normalization_v1_51", "dtype": "float32", "trainable": false, "moving_variance_initializer": {"class_name": "Ones", "config": {"dtype": "float32"}}, "beta_initializer": {"class_name": "Zeros", "config": {"dtype": "float32"}}, "scale": false, "axis": [3], "epsilon": 0.001, "gamma_constraint": null, "gamma_regularizer": null, "beta_regularizer": null, "momentum": 0.99, "center": true}, "inbound_nodes": [[["conv2d_51", 0, 0, {}]]], "name": "batch_normalization_v1_51"}, {"class_name": "BatchNormalization", "config": {"beta_constraint": null, "gamma_initializer": {"class_name": "Ones", "config": {"dtype": "float32"}}, "moving_mean_initializer": {"class_name": "Zeros", "config": {"dtype": "float32"}}, "name": "batch_normalization_v1_56", "dtype": "float32", "trainable": false, "moving_variance_initializer": {"class_name": "Ones", "config": {"dtype": "float32"}}, "beta_initializer": {"class_name": "Zeros", "config": {"dtype": "float32"}}, "scale": false, "axis": [3], "epsilon": 0.001, "gamma_constraint": null, "gamma_regularizer": null, "beta_regularizer": null, "momentum": 0.99, "center": true}, "inbound_nodes": [[["conv2d_56", 0, 0, {}]]], "name": "batch_normalization_v1_56"}, {"class_name": "Activation", "config": {"dtype": "float32", "activation": "relu", "trainable": false, "name": "activation_51"}, "inbound_nodes": [[["batch_normalization_v1_51", 0, 0, {}]]], "name": "activation_51"}, {"class_name": "Activation", "config": {"dtype": "float32", "activation": "relu", "trainable": false, "name": "activation_56"}, "inbound_nodes": [[["batch_normalization_v1_56", 0, 0, {}]]], "name": "activation_56"}, {"class_name": "Conv2D", "config": {"kernel_initializer": {"class_name": "GlorotUniform", "config": {"dtype": "float32", "seed": null}}, "name": "conv2d_52", "kernel_constraint": null, "bias_regularizer": null, "bias_constraint": null, "dtype": "float32", "activation": "linear", "trainable": false, "data_format": "channels_last", "padding": "same", "strides": [1, 1], "dilation_rate": [1, 1], "kernel_regularizer": null, "filters": 160, "bias_initializer": {"class_name": "Zeros", "config": {"dtype": "float32"}}, "use_bias": false, "activity_regularizer": null, "kernel_size": [1, 7]}, "inbound_nodes": [[["activation_51", 0, 0, {}]]], "name": "conv2d_52"}, {"class_name": "Conv2D", "config": {"kernel_initializer": {"class_name": "GlorotUniform", "config": {"dtype": "float32", "seed": null}}, "name": "conv2d_57", "kernel_constraint": null, "bias_regularizer": null, "bias_constraint": null, "dtype": "float32", "activation": "linear", "trainable": false, "data_format": "channels_last", "padding": "same", "strides": [1, 1], "dilation_rate": [1, 1], "kernel_regularizer": null, "filters": 160, "bias_initializer": {"class_name": "Zeros", "config": {"dtype": "float32"}}, "use_bias": false, "activity_regularizer": null, "kernel_size": [7, 1]}, "inbound_nodes": [[["activation_56", 0, 0, {}]]], "name": "conv2d_57"}, {"class_name": "BatchNormalization", "config": {"beta_constraint": null, "gamma_initializer": {"class_name": "Ones", "config": {"dtype": "float32"}}, "moving_mean_initializer": {"class_name": "Zeros", "config": {"dtype": "float32"}}, "name": "batch_normalization_v1_52", "dtype": "float32", "trainable": false, "moving_variance_initializer": {"class_name": "Ones", "config": {"dtype": "float32"}}, "beta_initializer": {"class_name": "Zeros", "config": {"dtype": "float32"}}, "scale": false, "axis": [3], "epsilon": 0.001, "gamma_constraint": null, "gamma_regularizer": null, "beta_regularizer": null, "momentum": 0.99, "center": true}, "inbound_nodes": [[["conv2d_52", 0, 0, {}]]], "name": "batch_normalization_v1_52"}, {"class_name": "BatchNormalization", "config": {"beta_constraint": null, "gamma_initializer": {"class_name": "Ones", "config": {"dtype": "float32"}}, "moving_mean_initializer": {"class_name": "Zeros", "config": {"dtype": "float32"}}, "name": "batch_normalization_v1_57", "dtype": "float32", "trainable": false, "moving_variance_initializer": {"class_name": "Ones", "config": {"dtype": "float32"}}, "beta_initializer": {"class_name": "Zeros", "config": {"dtype": "float32"}}, "scale": false, "axis": [3], "epsilon": 0.001, "gamma_constraint": null, "gamma_regularizer": null, "beta_regularizer": null, "momentum": 0.99, "center": true}, "inbound_nodes": [[["conv2d_57", 0, 0, {}]]], "name": "batch_normalization_v1_57"}, {"class_name": "Activation", "config": {"dtype": "float32", "activation": "relu", "trainable": false, "name": "activation_52"}, "inbound_nodes": [[["batch_normalization_v1_52", 0, 0, {}]]], "name": "activation_52"}, {"class_name": "Activation", "config": {"dtype": "float32", "activation": "relu", "trainable": false, "name": "activation_57"}, "inbound_nodes": [[["batch_normalization_v1_57", 0, 0, {}]]], "name": "activation_57"}, {"class_name": "AveragePooling2D", "config": {"name": "average_pooling2d_5", "dtype": "float32", "trainable": false, "data_format": "channels_last", "pool_size": [3, 3], "padding": "same", "strides": [1, 1]}, "inbound_nodes": [[["mixed5", 0, 0, {}]]], "name": "average_pooling2d_5"}, {"class_name": "Conv2D", "config": {"kernel_initializer": {"class_name": "GlorotUniform", "config": {"dtype": "float32", "seed": null}}, "name": "conv2d_50", "kernel_constraint": null, "bias_regularizer": null, "bias_constraint": null, "dtype": "float32", "activation": "linear", "trainable": false, "data_format": "channels_last", "padding": "same", "strides": [1, 1], "dilation_rate": [1, 1], "kernel_regularizer": null, "filters": 192, "bias_initializer": {"class_name": "Zeros", "config": {"dtype": "float32"}}, "use_bias": false, "activity_regularizer": null, "kernel_size": [1, 1]}, "inbound_nodes": [[["mixed5", 0, 0, {}]]], "name": "conv2d_50"}, {"class_name": "Conv2D", "config": {"kernel_initializer": {"class_name": "GlorotUniform", "config": {"dtype": "float32", "seed": null}}, "name": "conv2d_53", "kernel_constraint": null, "bias_regularizer": null, "bias_constraint": null, "dtype": "float32", "activation": "linear", "trainable": false, "data_format": "channels_last", "padding": "same", "strides": [1, 1], "dilation_rate": [1, 1], "kernel_regularizer": null, "filters": 192, "bias_initializer": {"class_name": "Zeros", "config": {"dtype": "float32"}}, "use_bias": false, "activity_regularizer": null, "kernel_size": [7, 1]}, "inbound_nodes": [[["activation_52", 0, 0, {}]]], "name": "conv2d_53"}, {"class_name": "Conv2D", "config": {"kernel_initializer": {"class_name": "GlorotUniform", "config": {"dtype": "float32", "seed": null}}, "name": "conv2d_58", "kernel_constraint": null, "bias_regularizer": null, "bias_constraint": null, "dtype": "float32", "activation": "linear", "trainable": false, "data_format": "channels_last", "padding": "same", "strides": [1, 1], "dilation_rate": [1, 1], "kernel_regularizer": null, "filters": 192, "bias_initializer": {"class_name": "Zeros", "config": {"dtype": "float32"}}, "use_bias": false, "activity_regularizer": null, "kernel_size": [1, 7]}, "inbound_nodes": [[["activation_57", 0, 0, {}]]], "name": "conv2d_58"}, {"class_name": "Conv2D", "config": {"kernel_initializer": {"class_name": "GlorotUniform", "config": {"dtype": "float32", "seed": null}}, "name": "conv2d_59", "kernel_constraint": null, "bias_regularizer": null, "bias_constraint": null, "dtype": "float32", "activation": "linear", "trainable": false, "data_format": "channels_last", "padding": "same", "strides": [1, 1], "dilation_rate": [1, 1], "kernel_regularizer": null, "filters": 192, "bias_initializer": {"class_name": "Zeros", "config": {"dtype": "float32"}}, "use_bias": false, "activity_regularizer": null, "kernel_size": [1, 1]}, "inbound_nodes": [[["average_pooling2d_5", 0, 0, {}]]], "name": "conv2d_59"}, {"class_name": "BatchNormalization", "config": {"beta_constraint": null, "gamma_initializer": {"class_name": "Ones", "config": {"dtype": "float32"}}, "moving_mean_initializer": {"class_name": "Zeros", "config": {"dtype": "float32"}}, "name": "batch_normalization_v1_50", "dtype": "float32", "trainable": false, "moving_variance_initializer": {"class_name": "Ones", "config": {"dtype": "float32"}}, "beta_initializer": {"class_name": "Zeros", "config": {"dtype": "float32"}}, "scale": false, "axis": [3], "epsilon": 0.001, "gamma_constraint": null, "gamma_regularizer": null, "beta_regularizer": null, "momentum": 0.99, "center": true}, "inbound_nodes": [[["conv2d_50", 0, 0, {}]]], "name": "batch_normalization_v1_50"}, {"class_name": "BatchNormalization", "config": {"beta_constraint": null, "gamma_initializer": {"class_name": "Ones", "config": {"dtype": "float32"}}, "moving_mean_initializer": {"class_name": "Zeros", "config": {"dtype": "float32"}}, "name": "batch_normalization_v1_53", "dtype": "float32", "trainable": false, "moving_variance_initializer": {"class_name": "Ones", "config": {"dtype": "float32"}}, "beta_initializer": {"class_name": "Zeros", "config": {"dtype": "float32"}}, "scale": false, "axis": [3], "epsilon": 0.001, "gamma_constraint": null, "gamma_regularizer": null, "beta_regularizer": null, "momentum": 0.99, "center": true}, "inbound_nodes": [[["conv2d_53", 0, 0, {}]]], "name": "batch_normalization_v1_53"}, {"class_name": "BatchNormalization", "config": {"beta_constraint": null, "gamma_initializer": {"class_name": "Ones", "config": {"dtype": "float32"}}, "moving_mean_initializer": {"class_name": "Zeros", "config": {"dtype": "float32"}}, "name": "batch_normalization_v1_58", "dtype": "float32", "trainable": false, "moving_variance_initializer": {"class_name": "Ones", "config": {"dtype": "float32"}}, "beta_initializer": {"class_name": "Zeros", "config": {"dtype": "float32"}}, "scale": false, "axis": [3], "epsilon": 0.001, "gamma_constraint": null, "gamma_regularizer": null, "beta_regularizer": null, "momentum": 0.99, "center": true}, "inbound_nodes": [[["conv2d_58", 0, 0, {}]]], "name": "batch_normalization_v1_58"}, {"class_name": "BatchNormalization", "config": {"beta_constraint": null, "gamma_initializer": {"class_name": "Ones", "config": {"dtype": "float32"}}, "moving_mean_initializer": {"class_name": "Zeros", "config": {"dtype": "float32"}}, "name": "batch_normalization_v1_59", "dtype": "float32", "trainable": false, "moving_variance_initializer": {"class_name": "Ones", "config": {"dtype": "float32"}}, "beta_initializer": {"class_name": "Zeros", "config": {"dtype": "float32"}}, "scale": false, "axis": [3], "epsilon": 0.001, "gamma_constraint": null, "gamma_regularizer": null, "beta_regularizer": null, "momentum": 0.99, "center": true}, "inbound_nodes": [[["conv2d_59", 0, 0, {}]]], "name": "batch_normalization_v1_59"}, {"class_name": "Activation", "config": {"dtype": "float32", "activation": "relu", "trainable": false, "name": "activation_50"}, "inbound_nodes": [[["batch_normalization_v1_50", 0, 0, {}]]], "name": "activation_50"}, {"class_name": "Activation", "config": {"dtype": "float32", "activation": "relu", "trainable": false, "name": "activation_53"}, "inbound_nodes": [[["batch_normalization_v1_53", 0, 0, {}]]], "name": "activation_53"}, {"class_name": "Activation", "config": {"dtype": "float32", "activation": "relu", "trainable": false, "name": "activation_58"}, "inbound_nodes": [[["batch_normalization_v1_58", 0, 0, {}]]], "name": "activation_58"}, {"class_name": "Activation", "config": {"dtype": "float32", "activation": "relu", "trainable": false, "name": "activation_59"}, "inbound_nodes": [[["batch_normalization_v1_59", 0, 0, {}]]], "name": "activation_59"}, {"class_name": "Concatenate", "config": {"dtype": "float32", "trainable": false, "name": "mixed6", "axis": 3}, "inbound_nodes": [[["activation_50", 0, 0, {}], ["activation_53", 0, 0, {}], ["activation_58", 0, 0, {}], ["activation_59", 0, 0, {}]]], "name": "mixed6"}, {"class_name": "Conv2D", "config": {"kernel_initializer": {"class_name": "GlorotUniform", "config": {"dtype": "float32", "seed": null}}, "name": "conv2d_64", "kernel_constraint": null, "bias_regularizer": null, "bias_constraint": null, "dtype": "float32", "activation": "linear", "trainable": false, "data_format": "channels_last", "padding": "same", "strides": [1, 1], "dilation_rate": [1, 1], "kernel_regularizer": null, "filters": 192, "bias_initializer": {"class_name": "Zeros", "config": {"dtype": "float32"}}, "use_bias": false, "activity_regularizer": null, "kernel_size": [1, 1]}, "inbound_nodes": [[["mixed6", 0, 0, {}]]], "name": "conv2d_64"}, {"class_name": "BatchNormalization", "config": {"beta_constraint": null, "gamma_initializer": {"class_name": "Ones", "config": {"dtype": "float32"}}, "moving_mean_initializer": {"class_name": "Zeros", "config": {"dtype": "float32"}}, "name": "batch_normalization_v1_64", "dtype": "float32", "trainable": false, "moving_variance_initializer": {"class_name": "Ones", "config": {"dtype": "float32"}}, "beta_initializer": {"class_name": "Zeros", "config": {"dtype": "float32"}}, "scale": false, "axis": [3], "epsilon": 0.001, "gamma_constraint": null, "gamma_regularizer": null, "beta_regularizer": null, "momentum": 0.99, "center": true}, "inbound_nodes": [[["conv2d_64", 0, 0, {}]]], "name": "batch_normalization_v1_64"}, {"class_name": "Activation", "config": {"dtype": "float32", "activation": "relu", "trainable": false, "name": "activation_64"}, "inbound_nodes": [[["batch_normalization_v1_64", 0, 0, {}]]], "name": "activation_64"}, {"class_name": "Conv2D", "config": {"kernel_initializer": {"class_name": "GlorotUniform", "config": {"dtype": "float32", "seed": null}}, "name": "conv2d_65", "kernel_constraint": null, "bias_regularizer": null, "bias_constraint": null, "dtype": "float32", "activation": "linear", "trainable": false, "data_format": "channels_last", "padding": "same", "strides": [1, 1], "dilation_rate": [1, 1], "kernel_regularizer": null, "filters": 192, "bias_initializer": {"class_name": "Zeros", "config": {"dtype": "float32"}}, "use_bias": false, "activity_regularizer": null, "kernel_size": [7, 1]}, "inbound_nodes": [[["activation_64", 0, 0, {}]]], "name": "conv2d_65"}, {"class_name": "BatchNormalization", "config": {"beta_constraint": null, "gamma_initializer": {"class_name": "Ones", "config": {"dtype": "float32"}}, "moving_mean_initializer": {"class_name": "Zeros", "config": {"dtype": "float32"}}, "name": "batch_normalization_v1_65", "dtype": "float32", "trainable": false, "moving_variance_initializer": {"class_name": "Ones", "config": {"dtype": "float32"}}, "beta_initializer": {"class_name": "Zeros", "config": {"dtype": "float32"}}, "scale": false, "axis": [3], "epsilon": 0.001, "gamma_constraint": null, "gamma_regularizer": null, "beta_regularizer": null, "momentum": 0.99, "center": true}, "inbound_nodes": [[["conv2d_65", 0, 0, {}]]], "name": "batch_normalization_v1_65"}, {"class_name": "Activation", "config": {"dtype": "float32", "activation": "relu", "trainable": false, "name": "activation_65"}, "inbound_nodes": [[["batch_normalization_v1_65", 0, 0, {}]]], "name": "activation_65"}, {"class_name": "Conv2D", "config": {"kernel_initializer": {"class_name": "GlorotUniform", "config": {"dtype": "float32", "seed": null}}, "name": "conv2d_61", "kernel_constraint": null, "bias_regularizer": null, "bias_constraint": null, "dtype": "float32", "activation": "linear", "trainable": false, "data_format": "channels_last", "padding": "same", "strides": [1, 1], "dilation_rate": [1, 1], "kernel_regularizer": null, "filters": 192, "bias_initializer": {"class_name": "Zeros", "config": {"dtype": "float32"}}, "use_bias": false, "activity_regularizer": null, "kernel_size": [1, 1]}, "inbound_nodes": [[["mixed6", 0, 0, {}]]], "name": "conv2d_61"}, {"class_name": "Conv2D", "config": {"kernel_initializer": {"class_name": "GlorotUniform", "config": {"dtype": "float32", "seed": null}}, "name": "conv2d_66", "kernel_constraint": null, "bias_regularizer": null, "bias_constraint": null, "dtype": "float32", "activation": "linear", "trainable": false, "data_format": "channels_last", "padding": "same", "strides": [1, 1], "dilation_rate": [1, 1], "kernel_regularizer": null, "filters": 192, "bias_initializer": {"class_name": "Zeros", "config": {"dtype": "float32"}}, "use_bias": false, "activity_regularizer": null, "kernel_size": [1, 7]}, "inbound_nodes": [[["activation_65", 0, 0, {}]]], "name": "conv2d_66"}, {"class_name": "BatchNormalization", "config": {"beta_constraint": null, "gamma_initializer": {"class_name": "Ones", "config": {"dtype": "float32"}}, "moving_mean_initializer": {"class_name": "Zeros", "config": {"dtype": "float32"}}, "name": "batch_normalization_v1_61", "dtype": "float32", "trainable": false, "moving_variance_initializer": {"class_name": "Ones", "config": {"dtype": "float32"}}, "beta_initializer": {"class_name": "Zeros", "config": {"dtype": "float32"}}, "scale": false, "axis": [3], "epsilon": 0.001, "gamma_constraint": null, "gamma_regularizer": null, "beta_regularizer": null, "momentum": 0.99, "center": true}, "inbound_nodes": [[["conv2d_61", 0, 0, {}]]], "name": "batch_normalization_v1_61"}, {"class_name": "BatchNormalization", "config": {"beta_constraint": null, "gamma_initializer": {"class_name": "Ones", "config": {"dtype": "float32"}}, "moving_mean_initializer": {"class_name": "Zeros", "config": {"dtype": "float32"}}, "name": "batch_normalization_v1_66", "dtype": "float32", "trainable": false, "moving_variance_initializer": {"class_name": "Ones", "config": {"dtype": "float32"}}, "beta_initializer": {"class_name": "Zeros", "config": {"dtype": "float32"}}, "scale": false, "axis": [3], "epsilon": 0.001, "gamma_constraint": null, "gamma_regularizer": null, "beta_regularizer": null, "momentum": 0.99, "center": true}, "inbound_nodes": [[["conv2d_66", 0, 0, {}]]], "name": "batch_normalization_v1_66"}, {"class_name": "Activation", "config": {"dtype": "float32", "activation": "relu", "trainable": false, "name": "activation_61"}, "inbound_nodes": [[["batch_normalization_v1_61", 0, 0, {}]]], "name": "activation_61"}, {"class_name": "Activation", "config": {"dtype": "float32", "activation": "relu", "trainable": false, "name": "activation_66"}, "inbound_nodes": [[["batch_normalization_v1_66", 0, 0, {}]]], "name": "activation_66"}, {"class_name": "Conv2D", "config": {"kernel_initializer": {"class_name": "GlorotUniform", "config": {"dtype": "float32", "seed": null}}, "name": "conv2d_62", "kernel_constraint": null, "bias_regularizer": null, "bias_constraint": null, "dtype": "float32", "activation": "linear", "trainable": false, "data_format": "channels_last", "padding": "same", "strides": [1, 1], "dilation_rate": [1, 1], "kernel_regularizer": null, "filters": 192, "bias_initializer": {"class_name": "Zeros", "config": {"dtype": "float32"}}, "use_bias": false, "activity_regularizer": null, "kernel_size": [1, 7]}, "inbound_nodes": [[["activation_61", 0, 0, {}]]], "name": "conv2d_62"}, {"class_name": "Conv2D", "config": {"kernel_initializer": {"class_name": "GlorotUniform", "config": {"dtype": "float32", "seed": null}}, "name": "conv2d_67", "kernel_constraint": null, "bias_regularizer": null, "bias_constraint": null, "dtype": "float32", "activation": "linear", "trainable": false, "data_format": "channels_last", "padding": "same", "strides": [1, 1], "dilation_rate": [1, 1], "kernel_regularizer": null, "filters": 192, "bias_initializer": {"class_name": "Zeros", "config": {"dtype": "float32"}}, "use_bias": false, "activity_regularizer": null, "kernel_size": [7, 1]}, "inbound_nodes": [[["activation_66", 0, 0, {}]]], "name": "conv2d_67"}, {"class_name": "BatchNormalization", "config": {"beta_constraint": null, "gamma_initializer": {"class_name": "Ones", "config": {"dtype": "float32"}}, "moving_mean_initializer": {"class_name": "Zeros", "config": {"dtype": "float32"}}, "name": "batch_normalization_v1_62", "dtype": "float32", "trainable": false, "moving_variance_initializer": {"class_name": "Ones", "config": {"dtype": "float32"}}, "beta_initializer": {"class_name": "Zeros", "config": {"dtype": "float32"}}, "scale": false, "axis": [3], "epsilon": 0.001, "gamma_constraint": null, "gamma_regularizer": null, "beta_regularizer": null, "momentum": 0.99, "center": true}, "inbound_nodes": [[["conv2d_62", 0, 0, {}]]], "name": "batch_normalization_v1_62"}, {"class_name": "BatchNormalization", "config": {"beta_constraint": null, "gamma_initializer": {"class_name": "Ones", "config": {"dtype": "float32"}}, "moving_mean_initializer": {"class_name": "Zeros", "config": {"dtype": "float32"}}, "name": "batch_normalization_v1_67", "dtype": "float32", "trainable": false, "moving_variance_initializer": {"class_name": "Ones", "config": {"dtype": "float32"}}, "beta_initializer": {"class_name": "Zeros", "config": {"dtype": "float32"}}, "scale": false, "axis": [3], "epsilon": 0.001, "gamma_constraint": null, "gamma_regularizer": null, "beta_regularizer": null, "momentum": 0.99, "center": true}, "inbound_nodes": [[["conv2d_67", 0, 0, {}]]], "name": "batch_normalization_v1_67"}, {"class_name": "Activation", "config": {"dtype": "float32", "activation": "relu", "trainable": false, "name": "activation_62"}, "inbound_nodes": [[["batch_normalization_v1_62", 0, 0, {}]]], "name": "activation_62"}, {"class_name": "Activation", "config": {"dtype": "float32", "activation": "relu", "trainable": false, "name": "activation_67"}, "inbound_nodes": [[["batch_normalization_v1_67", 0, 0, {}]]], "name": "activation_67"}, {"class_name": "AveragePooling2D", "config": {"name": "average_pooling2d_6", "dtype": "float32", "trainable": false, "data_format": "channels_last", "pool_size": [3, 3], "padding": "same", "strides": [1, 1]}, "inbound_nodes": [[["mixed6", 0, 0, {}]]], "name": "average_pooling2d_6"}, {"class_name": "Conv2D", "config": {"kernel_initializer": {"class_name": "GlorotUniform", "config": {"dtype": "float32", "seed": null}}, "name": "conv2d_60", "kernel_constraint": null, "bias_regularizer": null, "bias_constraint": null, "dtype": "float32", "activation": "linear", "trainable": false, "data_format": "channels_last", "padding": "same", "strides": [1, 1], "dilation_rate": [1, 1], "kernel_regularizer": null, "filters": 192, "bias_initializer": {"class_name": "Zeros", "config": {"dtype": "float32"}}, "use_bias": false, "activity_regularizer": null, "kernel_size": [1, 1]}, "inbound_nodes": [[["mixed6", 0, 0, {}]]], "name": "conv2d_60"}, {"class_name": "Conv2D", "config": {"kernel_initializer": {"class_name": "GlorotUniform", "config": {"dtype": "float32", "seed": null}}, "name": "conv2d_63", "kernel_constraint": null, "bias_regularizer": null, "bias_constraint": null, "dtype": "float32", "activation": "linear", "trainable": false, "data_format": "channels_last", "padding": "same", "strides": [1, 1], "dilation_rate": [1, 1], "kernel_regularizer": null, "filters": 192, "bias_initializer": {"class_name": "Zeros", "config": {"dtype": "float32"}}, "use_bias": false, "activity_regularizer": null, "kernel_size": [7, 1]}, "inbound_nodes": [[["activation_62", 0, 0, {}]]], "name": "conv2d_63"}, {"class_name": "Conv2D", "config": {"kernel_initializer": {"class_name": "GlorotUniform", "config": {"dtype": "float32", "seed": null}}, "name": "conv2d_68", "kernel_constraint": null, "bias_regularizer": null, "bias_constraint": null, "dtype": "float32", "activation": "linear", "trainable": false, "data_format": "channels_last", "padding": "same", "strides": [1, 1], "dilation_rate": [1, 1], "kernel_regularizer": null, "filters": 192, "bias_initializer": {"class_name": "Zeros", "config": {"dtype": "float32"}}, "use_bias": false, "activity_regularizer": null, "kernel_size": [1, 7]}, "inbound_nodes": [[["activation_67", 0, 0, {}]]], "name": "conv2d_68"}, {"class_name": "Conv2D", "config": {"kernel_initializer": {"class_name": "GlorotUniform", "config": {"dtype": "float32", "seed": null}}, "name": "conv2d_69", "kernel_constraint": null, "bias_regularizer": null, "bias_constraint": null, "dtype": "float32", "activation": "linear", "trainable": false, "data_format": "channels_last", "padding": "same", "strides": [1, 1], "dilation_rate": [1, 1], "kernel_regularizer": null, "filters": 192, "bias_initializer": {"class_name": "Zeros", "config": {"dtype": "float32"}}, "use_bias": false, "activity_regularizer": null, "kernel_size": [1, 1]}, "inbound_nodes": [[["average_pooling2d_6", 0, 0, {}]]], "name": "conv2d_69"}, {"class_name": "BatchNormalization", "config": {"beta_constraint": null, "gamma_initializer": {"class_name": "Ones", "config": {"dtype": "float32"}}, "moving_mean_initializer": {"class_name": "Zeros", "config": {"dtype": "float32"}}, "name": "batch_normalization_v1_60", "dtype": "float32", "trainable": false, "moving_variance_initializer": {"class_name": "Ones", "config": {"dtype": "float32"}}, "beta_initializer": {"class_name": "Zeros", "config": {"dtype": "float32"}}, "scale": false, "axis": [3], "epsilon": 0.001, "gamma_constraint": null, "gamma_regularizer": null, "beta_regularizer": null, "momentum": 0.99, "center": true}, "inbound_nodes": [[["conv2d_60", 0, 0, {}]]], "name": "batch_normalization_v1_60"}, {"class_name": "BatchNormalization", "config": {"beta_constraint": null, "gamma_initializer": {"class_name": "Ones", "config": {"dtype": "float32"}}, "moving_mean_initializer": {"class_name": "Zeros", "config": {"dtype": "float32"}}, "name": "batch_normalization_v1_63", "dtype": "float32", "trainable": false, "moving_variance_initializer": {"class_name": "Ones", "config": {"dtype": "float32"}}, "beta_initializer": {"class_name": "Zeros", "config": {"dtype": "float32"}}, "scale": false, "axis": [3], "epsilon": 0.001, "gamma_constraint": null, "gamma_regularizer": null, "beta_regularizer": null, "momentum": 0.99, "center": true}, "inbound_nodes": [[["conv2d_63", 0, 0, {}]]], "name": "batch_normalization_v1_63"}, {"class_name": "BatchNormalization", "config": {"beta_constraint": null, "gamma_initializer": {"class_name": "Ones", "config": {"dtype": "float32"}}, "moving_mean_initializer": {"class_name": "Zeros", "config": {"dtype": "float32"}}, "name": "batch_normalization_v1_68", "dtype": "float32", "trainable": false, "moving_variance_initializer": {"class_name": "Ones", "config": {"dtype": "float32"}}, "beta_initializer": {"class_name": "Zeros", "config": {"dtype": "float32"}}, "scale": false, "axis": [3], "epsilon": 0.001, "gamma_constraint": null, "gamma_regularizer": null, "beta_regularizer": null, "momentum": 0.99, "center": true}, "inbound_nodes": [[["conv2d_68", 0, 0, {}]]], "name": "batch_normalization_v1_68"}, {"class_name": "BatchNormalization", "config": {"beta_constraint": null, "gamma_initializer": {"class_name": "Ones", "config": {"dtype": "float32"}}, "moving_mean_initializer": {"class_name": "Zeros", "config": {"dtype": "float32"}}, "name": "batch_normalization_v1_69", "dtype": "float32", "trainable": false, "moving_variance_initializer": {"class_name": "Ones", "config": {"dtype": "float32"}}, "beta_initializer": {"class_name": "Zeros", "config": {"dtype": "float32"}}, "scale": false, "axis": [3], "epsilon": 0.001, "gamma_constraint": null, "gamma_regularizer": null, "beta_regularizer": null, "momentum": 0.99, "center": true}, "inbound_nodes": [[["conv2d_69", 0, 0, {}]]], "name": "batch_normalization_v1_69"}, {"class_name": "Activation", "config": {"dtype": "float32", "activation": "relu", "trainable": false, "name": "activation_60"}, "inbound_nodes": [[["batch_normalization_v1_60", 0, 0, {}]]], "name": "activation_60"}, {"class_name": "Activation", "config": {"dtype": "float32", "activation": "relu", "trainable": false, "name": "activation_63"}, "inbound_nodes": [[["batch_normalization_v1_63", 0, 0, {}]]], "name": "activation_63"}, {"class_name": "Activation", "config": {"dtype": "float32", "activation": "relu", "trainable": false, "name": "activation_68"}, "inbound_nodes": [[["batch_normalization_v1_68", 0, 0, {}]]], "name": "activation_68"}, {"class_name": "Activation", "config": {"dtype": "float32", "activation": "relu", "trainable": false, "name": "activation_69"}, "inbound_nodes": [[["batch_normalization_v1_69", 0, 0, {}]]], "name": "activation_69"}, {"class_name": "Concatenate", "config": {"dtype": "float32", "trainable": false, "name": "mixed7", "axis": 3}, "inbound_nodes": [[["activation_60", 0, 0, {}], ["activation_63", 0, 0, {}], ["activation_68", 0, 0, {}], ["activation_69", 0, 0, {}]]], "name": "mixed7"}, {"class_name": "Flatten", "config": {"dtype": "float32", "trainable": true, "name": "flatten_1", "data_format": "channels_last"}, "inbound_nodes": [[["mixed7", 0, 0, {}]]], "name": "flatten_1"}, {"class_name": "Dense", "config": {"kernel_initializer": {"class_name": "GlorotUniform", "config": {"dtype": "float32", "seed": null}}, "name": "dense_2", "kernel_constraint": null, "bias_regularizer": null, "bias_constraint": null, "dtype": "float32", "activation": "relu", "trainable": true, "kernel_regularizer": null, "bias_initializer": {"class_name": "Zeros", "config": {"dtype": "float32"}}, "units": 1024, "use_bias": true, "activity_regularizer": null}, "inbound_nodes": [[["flatten_1", 0, 0, {}]]], "name": "dense_2"}, {"class_name": "Dropout", "config": {"name": "dropout_1", "dtype": "float32", "trainable": true, "rate": 0.7, "seed": null, "noise_shape": null}, "inbound_nodes": [[["dense_2", 0, 0, {}]]], "name": "dropout_1"}, {"class_name": "Dense", "config": {"kernel_initializer": {"class_name": "GlorotUniform", "config": {"dtype": "float32", "seed": null}}, "name": "dense_3", "kernel_constraint": null, "bias_regularizer": null, "bias_constraint": null, "dtype": "float32", "activation": "sigmoid", "trainable": true, "kernel_regularizer": null, "bias_initializer": {"class_name": "Zeros", "config": {"dtype": "float32"}}, "units": 1, "use_bias": true, "activity_regularizer": null}, "inbound_nodes": [[["dropout_1", 0, 0, {}]]], "name": "dense_3"}], "input_layers": [["input_1", 0, 0]], "output_layers": [["dense_3", 0, 0]], "name": "model_1"}}, "training_config": {"loss": "binary_crossentropy", "loss_weights": null, "metrics": ["acc"], "optimizer_config": {"class_name": "Adam", "config": {"beta_1": 0.8999999761581421, "beta_2": 0.9990000128746033, "decay": 0.0, "epsilon": 1e-07, "amsgrad": false, "lr": 0.0010000000474974513}}, "weighted_metrics": null, "sample_weight_mode": null}}, "weightsManifest": [{"paths": ["group1-shard1of46.bin", "group1-shard2of46.bin", "group1-shard3of46.bin", "group1-shard4of46.bin", "group1-shard5of46.bin", "group1-shard6of46.bin", "group1-shard7of46.bin", "group1-shard8of46.bin", "group1-shard9of46.bin", "group1-shard10of46.bin", "group1-shard11of46.bin", "group1-shard12of46.bin", "group1-shard13of46.bin", "group1-shard14of46.bin", "group1-shard15of46.bin", "group1-shard16of46.bin", "group1-shard17of46.bin", "group1-shard18of46.bin", "group1-shard19of46.bin", "group1-shard20of46.bin", "group1-shard21of46.bin", "group1-shard22of46.bin", "group1-shard23of46.bin", "group1-shard24of46.bin", "group1-shard25of46.bin", "group1-shard26of46.bin", "group1-shard27of46.bin", "group1-shard28of46.bin", "group1-shard29of46.bin", "group1-shard30of46.bin", "group1-shard31of46.bin", "group1-shard32of46.bin", "group1-shard33of46.bin", "group1-shard34of46.bin", "group1-shard35of46.bin", "group1-shard36of46.bin", "group1-shard37of46.bin", "group1-shard38of46.bin", "group1-shard39of46.bin", "group1-shard40of46.bin", "group1-shard41of46.bin", "group1-shard42of46.bin", "group1-shard43of46.bin", "group1-shard44of46.bin", "group1-shard45of46.bin", "group1-shard46of46.bin"], "weights": [{"name": "batch_normalization_v1/beta", "shape": [32], "dtype": "float32"}, {"name": "batch_normalization_v1/moving_mean", "shape": [32], "dtype": "float32"}, {"name": "batch_normalization_v1/moving_variance", "shape": [32], "dtype": "float32"}, {"name": "batch_normalization_v1_1/beta", "shape": [32], "dtype": "float32"}, {"name": "batch_normalization_v1_1/moving_mean", "shape": [32], "dtype": "float32"}, {"name": "batch_normalization_v1_1/moving_variance", "shape": [32], "dtype": "float32"}, {"name": "batch_normalization_v1_10/beta", "shape": [96], "dtype": "float32"}, {"name": "batch_normalization_v1_10/moving_mean", "shape": [96], "dtype": "float32"}, {"name": "batch_normalization_v1_10/moving_variance", "shape": [96], "dtype": "float32"}, {"name": "batch_normalization_v1_11/beta", "shape": [32], "dtype": "float32"}, {"name": "batch_normalization_v1_11/moving_mean", "shape": [32], "dtype": "float32"}, {"name": "batch_normalization_v1_11/moving_variance", "shape": [32], "dtype": "float32"}, {"name": "batch_normalization_v1_12/beta", "shape": [64], "dtype": "float32"}, {"name": "batch_normalization_v1_12/moving_mean", "shape": [64], "dtype": "float32"}, {"name": "batch_normalization_v1_12/moving_variance", "shape": [64], "dtype": "float32"}, {"name": "batch_normalization_v1_13/beta", "shape": [48], "dtype": "float32"}, {"name": "batch_normalization_v1_13/moving_mean", "shape": [48], "dtype": "float32"}, {"name": "batch_normalization_v1_13/moving_variance", "shape": [48], "dtype": "float32"}, {"name": "batch_normalization_v1_14/beta", "shape": [64], "dtype": "float32"}, {"name": "batch_normalization_v1_14/moving_mean", "shape": [64], "dtype": "float32"}, {"name": "batch_normalization_v1_14/moving_variance", "shape": [64], "dtype": "float32"}, {"name": "batch_normalization_v1_15/beta", "shape": [64], "dtype": "float32"}, {"name": "batch_normalization_v1_15/moving_mean", "shape": [64], "dtype": "float32"}, {"name": "batch_normalization_v1_15/moving_variance", "shape": [64], "dtype": "float32"}, {"name": "batch_normalization_v1_16/beta", "shape": [96], "dtype": "float32"}, {"name": "batch_normalization_v1_16/moving_mean", "shape": [96], "dtype": "float32"}, {"name": "batch_normalization_v1_16/moving_variance", "shape": [96], "dtype": "float32"}, {"name": "batch_normalization_v1_17/beta", "shape": [96], "dtype": "float32"}, {"name": "batch_normalization_v1_17/moving_mean", "shape": [96], "dtype": "float32"}, {"name": "batch_normalization_v1_17/moving_variance", "shape": [96], "dtype": "float32"}, {"name": "batch_normalization_v1_18/beta", "shape": [64], "dtype": "float32"}, {"name": "batch_normalization_v1_18/moving_mean", "shape": [64], "dtype": "float32"}, {"name": "batch_normalization_v1_18/moving_variance", "shape": [64], "dtype": "float32"}, {"name": "batch_normalization_v1_19/beta", "shape": [64], "dtype": "float32"}, {"name": "batch_normalization_v1_19/moving_mean", "shape": [64], "dtype": "float32"}, {"name": "batch_normalization_v1_19/moving_variance", "shape": [64], "dtype": "float32"}, {"name": "batch_normalization_v1_2/beta", "shape": [64], "dtype": "float32"}, {"name": "batch_normalization_v1_2/moving_mean", "shape": [64], "dtype": "float32"}, {"name": "batch_normalization_v1_2/moving_variance", "shape": [64], "dtype": "float32"}, {"name": "batch_normalization_v1_20/beta", "shape": [48], "dtype": "float32"}, {"name": "batch_normalization_v1_20/moving_mean", "shape": [48], "dtype": "float32"}, {"name": "batch_normalization_v1_20/moving_variance", "shape": [48], "dtype": "float32"}, {"name": "batch_normalization_v1_21/beta", "shape": [64], "dtype": "float32"}, {"name": "batch_normalization_v1_21/moving_mean", "shape": [64], "dtype": "float32"}, {"name": "batch_normalization_v1_21/moving_variance", "shape": [64], "dtype": "float32"}, {"name": "batch_normalization_v1_22/beta", "shape": [64], "dtype": "float32"}, {"name": "batch_normalization_v1_22/moving_mean", "shape": [64], "dtype": "float32"}, {"name": "batch_normalization_v1_22/moving_variance", "shape": [64], "dtype": "float32"}, {"name": "batch_normalization_v1_23/beta", "shape": [96], "dtype": "float32"}, {"name": "batch_normalization_v1_23/moving_mean", "shape": [96], "dtype": "float32"}, {"name": "batch_normalization_v1_23/moving_variance", "shape": [96], "dtype": "float32"}, {"name": "batch_normalization_v1_24/beta", "shape": [96], "dtype": "float32"}, {"name": "batch_normalization_v1_24/moving_mean", "shape": [96], "dtype": "float32"}, {"name": "batch_normalization_v1_24/moving_variance", "shape": [96], "dtype": "float32"}, {"name": "batch_normalization_v1_25/beta", "shape": [64], "dtype": "float32"}, {"name": "batch_normalization_v1_25/moving_mean", "shape": [64], "dtype": "float32"}, {"name": "batch_normalization_v1_25/moving_variance", "shape": [64], "dtype": "float32"}, {"name": "batch_normalization_v1_26/beta", "shape": [384], "dtype": "float32"}, {"name": "batch_normalization_v1_26/moving_mean", "shape": [384], "dtype": "float32"}, {"name": "batch_normalization_v1_26/moving_variance", "shape": [384], "dtype": "float32"}, {"name": "batch_normalization_v1_27/beta", "shape": [64], "dtype": "float32"}, {"name": "batch_normalization_v1_27/moving_mean", "shape": [64], "dtype": "float32"}, {"name": "batch_normalization_v1_27/moving_variance", "shape": [64], "dtype": "float32"}, {"name": "batch_normalization_v1_28/beta", "shape": [96], "dtype": "float32"}, {"name": "batch_normalization_v1_28/moving_mean", "shape": [96], "dtype": "float32"}, {"name": "batch_normalization_v1_28/moving_variance", "shape": [96], "dtype": "float32"}, {"name": "batch_normalization_v1_29/beta", "shape": [96], "dtype": "float32"}, {"name": "batch_normalization_v1_29/moving_mean", "shape": [96], "dtype": "float32"}, {"name": "batch_normalization_v1_29/moving_variance", "shape": [96], "dtype": "float32"}, {"name": "batch_normalization_v1_3/beta", "shape": [80], "dtype": "float32"}, {"name": "batch_normalization_v1_3/moving_mean", "shape": [80], "dtype": "float32"}, {"name": "batch_normalization_v1_3/moving_variance", "shape": [80], "dtype": "float32"}, {"name": "batch_normalization_v1_30/beta", "shape": [192], "dtype": "float32"}, {"name": "batch_normalization_v1_30/moving_mean", "shape": [192], "dtype": "float32"}, {"name": "batch_normalization_v1_30/moving_variance", "shape": [192], "dtype": "float32"}, {"name": "batch_normalization_v1_31/beta", "shape": [128], "dtype": "float32"}, {"name": "batch_normalization_v1_31/moving_mean", "shape": [128], "dtype": "float32"}, {"name": "batch_normalization_v1_31/moving_variance", "shape": [128], "dtype": "float32"}, {"name": "batch_normalization_v1_32/beta", "shape": [128], "dtype": "float32"}, {"name": "batch_normalization_v1_32/moving_mean", "shape": [128], "dtype": "float32"}, {"name": "batch_normalization_v1_32/moving_variance", "shape": [128], "dtype": "float32"}, {"name": "batch_normalization_v1_33/beta", "shape": [192], "dtype": "float32"}, {"name": "batch_normalization_v1_33/moving_mean", "shape": [192], "dtype": "float32"}, {"name": "batch_normalization_v1_33/moving_variance", "shape": [192], "dtype": "float32"}, {"name": "batch_normalization_v1_34/beta", "shape": [128], "dtype": "float32"}, {"name": "batch_normalization_v1_34/moving_mean", "shape": [128], "dtype": "float32"}, {"name": "batch_normalization_v1_34/moving_variance", "shape": [128], "dtype": "float32"}, {"name": "batch_normalization_v1_35/beta", "shape": [128], "dtype": "float32"}, {"name": "batch_normalization_v1_35/moving_mean", "shape": [128], "dtype": "float32"}, {"name": "batch_normalization_v1_35/moving_variance", "shape": [128], "dtype": "float32"}, {"name": "batch_normalization_v1_36/beta", "shape": [128], "dtype": "float32"}, {"name": "batch_normalization_v1_36/moving_mean", "shape": [128], "dtype": "float32"}, {"name": "batch_normalization_v1_36/moving_variance", "shape": [128], "dtype": "float32"}, {"name": "batch_normalization_v1_37/beta", "shape": [128], "dtype": "float32"}, {"name": "batch_normalization_v1_37/moving_mean", "shape": [128], "dtype": "float32"}, {"name": "batch_normalization_v1_37/moving_variance", "shape": [128], "dtype": "float32"}, {"name": "batch_normalization_v1_38/beta", "shape": [192], "dtype": "float32"}, {"name": "batch_normalization_v1_38/moving_mean", "shape": [192], "dtype": "float32"}, {"name": "batch_normalization_v1_38/moving_variance", "shape": [192], "dtype": "float32"}, {"name": "batch_normalization_v1_39/beta", "shape": [192], "dtype": "float32"}, {"name": "batch_normalization_v1_39/moving_mean", "shape": [192], "dtype": "float32"}, {"name": "batch_normalization_v1_39/moving_variance", "shape": [192], "dtype": "float32"}, {"name": "batch_normalization_v1_4/beta", "shape": [192], "dtype": "float32"}, {"name": "batch_normalization_v1_4/moving_mean", "shape": [192], "dtype": "float32"}, {"name": "batch_normalization_v1_4/moving_variance", "shape": [192], "dtype": "float32"}, {"name": "batch_normalization_v1_40/beta", "shape": [192], "dtype": "float32"}, {"name": "batch_normalization_v1_40/moving_mean", "shape": [192], "dtype": "float32"}, {"name": "batch_normalization_v1_40/moving_variance", "shape": [192], "dtype": "float32"}, {"name": "batch_normalization_v1_41/beta", "shape": [160], "dtype": "float32"}, {"name": "batch_normalization_v1_41/moving_mean", "shape": [160], "dtype": "float32"}, {"name": "batch_normalization_v1_41/moving_variance", "shape": [160], "dtype": "float32"}, {"name": "batch_normalization_v1_42/beta", "shape": [160], "dtype": "float32"}, {"name": "batch_normalization_v1_42/moving_mean", "shape": [160], "dtype": "float32"}, {"name": "batch_normalization_v1_42/moving_variance", "shape": [160], "dtype": "float32"}, {"name": "batch_normalization_v1_43/beta", "shape": [192], "dtype": "float32"}, {"name": "batch_normalization_v1_43/moving_mean", "shape": [192], "dtype": "float32"}, {"name": "batch_normalization_v1_43/moving_variance", "shape": [192], "dtype": "float32"}, {"name": "batch_normalization_v1_44/beta", "shape": [160], "dtype": "float32"}, {"name": "batch_normalization_v1_44/moving_mean", "shape": [160], "dtype": "float32"}, {"name": "batch_normalization_v1_44/moving_variance", "shape": [160], "dtype": "float32"}, {"name": "batch_normalization_v1_45/beta", "shape": [160], "dtype": "float32"}, {"name": "batch_normalization_v1_45/moving_mean", "shape": [160], "dtype": "float32"}, {"name": "batch_normalization_v1_45/moving_variance", "shape": [160], "dtype": "float32"}, {"name": "batch_normalization_v1_46/beta", "shape": [160], "dtype": "float32"}, {"name": "batch_normalization_v1_46/moving_mean", "shape": [160], "dtype": "float32"}, {"name": "batch_normalization_v1_46/moving_variance", "shape": [160], "dtype": "float32"}, {"name": "batch_normalization_v1_47/beta", "shape": [160], "dtype": "float32"}, {"name": "batch_normalization_v1_47/moving_mean", "shape": [160], "dtype": "float32"}, {"name": "batch_normalization_v1_47/moving_variance", "shape": [160], "dtype": "float32"}, {"name": "batch_normalization_v1_48/beta", "shape": [192], "dtype": "float32"}, {"name": "batch_normalization_v1_48/moving_mean", "shape": [192], "dtype": "float32"}, {"name": "batch_normalization_v1_48/moving_variance", "shape": [192], "dtype": "float32"}, {"name": "batch_normalization_v1_49/beta", "shape": [192], "dtype": "float32"}, {"name": "batch_normalization_v1_49/moving_mean", "shape": [192], "dtype": "float32"}, {"name": "batch_normalization_v1_49/moving_variance", "shape": [192], "dtype": "float32"}, {"name": "batch_normalization_v1_5/beta", "shape": [64], "dtype": "float32"}, {"name": "batch_normalization_v1_5/moving_mean", "shape": [64], "dtype": "float32"}, {"name": "batch_normalization_v1_5/moving_variance", "shape": [64], "dtype": "float32"}, {"name": "batch_normalization_v1_50/beta", "shape": [192], "dtype": "float32"}, {"name": "batch_normalization_v1_50/moving_mean", "shape": [192], "dtype": "float32"}, {"name": "batch_normalization_v1_50/moving_variance", "shape": [192], "dtype": "float32"}, {"name": "batch_normalization_v1_51/beta", "shape": [160], "dtype": "float32"}, {"name": "batch_normalization_v1_51/moving_mean", "shape": [160], "dtype": "float32"}, {"name": "batch_normalization_v1_51/moving_variance", "shape": [160], "dtype": "float32"}, {"name": "batch_normalization_v1_52/beta", "shape": [160], "dtype": "float32"}, {"name": "batch_normalization_v1_52/moving_mean", "shape": [160], "dtype": "float32"}, {"name": "batch_normalization_v1_52/moving_variance", "shape": [160], "dtype": "float32"}, {"name": "batch_normalization_v1_53/beta", "shape": [192], "dtype": "float32"}, {"name": "batch_normalization_v1_53/moving_mean", "shape": [192], "dtype": "float32"}, {"name": "batch_normalization_v1_53/moving_variance", "shape": [192], "dtype": "float32"}, {"name": "batch_normalization_v1_54/beta", "shape": [160], "dtype": "float32"}, {"name": "batch_normalization_v1_54/moving_mean", "shape": [160], "dtype": "float32"}, {"name": "batch_normalization_v1_54/moving_variance", "shape": [160], "dtype": "float32"}, {"name": "batch_normalization_v1_55/beta", "shape": [160], "dtype": "float32"}, {"name": "batch_normalization_v1_55/moving_mean", "shape": [160], "dtype": "float32"}, {"name": "batch_normalization_v1_55/moving_variance", "shape": [160], "dtype": "float32"}, {"name": "batch_normalization_v1_56/beta", "shape": [160], "dtype": "float32"}, {"name": "batch_normalization_v1_56/moving_mean", "shape": [160], "dtype": "float32"}, {"name": "batch_normalization_v1_56/moving_variance", "shape": [160], "dtype": "float32"}, {"name": "batch_normalization_v1_57/beta", "shape": [160], "dtype": "float32"}, {"name": "batch_normalization_v1_57/moving_mean", "shape": [160], "dtype": "float32"}, {"name": "batch_normalization_v1_57/moving_variance", "shape": [160], "dtype": "float32"}, {"name": "batch_normalization_v1_58/beta", "shape": [192], "dtype": "float32"}, {"name": "batch_normalization_v1_58/moving_mean", "shape": [192], "dtype": "float32"}, {"name": "batch_normalization_v1_58/moving_variance", "shape": [192], "dtype": "float32"}, {"name": "batch_normalization_v1_59/beta", "shape": [192], "dtype": "float32"}, {"name": "batch_normalization_v1_59/moving_mean", "shape": [192], "dtype": "float32"}, {"name": "batch_normalization_v1_59/moving_variance", "shape": [192], "dtype": "float32"}, {"name": "batch_normalization_v1_6/beta", "shape": [48], "dtype": "float32"}, {"name": "batch_normalization_v1_6/moving_mean", "shape": [48], "dtype": "float32"}, {"name": "batch_normalization_v1_6/moving_variance", "shape": [48], "dtype": "float32"}, {"name": "batch_normalization_v1_60/beta", "shape": [192], "dtype": "float32"}, {"name": "batch_normalization_v1_60/moving_mean", "shape": [192], "dtype": "float32"}, {"name": "batch_normalization_v1_60/moving_variance", "shape": [192], "dtype": "float32"}, {"name": "batch_normalization_v1_61/beta", "shape": [192], "dtype": "float32"}, {"name": "batch_normalization_v1_61/moving_mean", "shape": [192], "dtype": "float32"}, {"name": "batch_normalization_v1_61/moving_variance", "shape": [192], "dtype": "float32"}, {"name": "batch_normalization_v1_62/beta", "shape": [192], "dtype": "float32"}, {"name": "batch_normalization_v1_62/moving_mean", "shape": [192], "dtype": "float32"}, {"name": "batch_normalization_v1_62/moving_variance", "shape": [192], "dtype": "float32"}, {"name": "batch_normalization_v1_63/beta", "shape": [192], "dtype": "float32"}, {"name": "batch_normalization_v1_63/moving_mean", "shape": [192], "dtype": "float32"}, {"name": "batch_normalization_v1_63/moving_variance", "shape": [192], "dtype": "float32"}, {"name": "batch_normalization_v1_64/beta", "shape": [192], "dtype": "float32"}, {"name": "batch_normalization_v1_64/moving_mean", "shape": [192], "dtype": "float32"}, {"name": "batch_normalization_v1_64/moving_variance", "shape": [192], "dtype": "float32"}, {"name": "batch_normalization_v1_65/beta", "shape": [192], "dtype": "float32"}, {"name": "batch_normalization_v1_65/moving_mean", "shape": [192], "dtype": "float32"}, {"name": "batch_normalization_v1_65/moving_variance", "shape": [192], "dtype": "float32"}, {"name": "batch_normalization_v1_66/beta", "shape": [192], "dtype": "float32"}, {"name": "batch_normalization_v1_66/moving_mean", "shape": [192], "dtype": "float32"}, {"name": "batch_normalization_v1_66/moving_variance", "shape": [192], "dtype": "float32"}, {"name": "batch_normalization_v1_67/beta", "shape": [192], "dtype": "float32"}, {"name": "batch_normalization_v1_67/moving_mean", "shape": [192], "dtype": "float32"}, {"name": "batch_normalization_v1_67/moving_variance", "shape": [192], "dtype": "float32"}, {"name": "batch_normalization_v1_68/beta", "shape": [192], "dtype": "float32"}, {"name": "batch_normalization_v1_68/moving_mean", "shape": [192], "dtype": "float32"}, {"name": "batch_normalization_v1_68/moving_variance", "shape": [192], "dtype": "float32"}, {"name": "batch_normalization_v1_69/beta", "shape": [192], "dtype": "float32"}, {"name": "batch_normalization_v1_69/moving_mean", "shape": [192], "dtype": "float32"}, {"name": "batch_normalization_v1_69/moving_variance", "shape": [192], "dtype": "float32"}, {"name": "batch_normalization_v1_7/beta", "shape": [64], "dtype": "float32"}, {"name": "batch_normalization_v1_7/moving_mean", "shape": [64], "dtype": "float32"}, {"name": "batch_normalization_v1_7/moving_variance", "shape": [64], "dtype": "float32"}, {"name": "batch_normalization_v1_8/beta", "shape": [64], "dtype": "float32"}, {"name": "batch_normalization_v1_8/moving_mean", "shape": [64], "dtype": "float32"}, {"name": "batch_normalization_v1_8/moving_variance", "shape": [64], "dtype": "float32"}, {"name": "batch_normalization_v1_9/beta", "shape": [96], "dtype": "float32"}, {"name": "batch_normalization_v1_9/moving_mean", "shape": [96], "dtype": "float32"}, {"name": "batch_normalization_v1_9/moving_variance", "shape": [96], "dtype": "float32"}, {"name": "conv2d/kernel", "shape": [3, 3, 3, 32], "dtype": "float32"}, {"name": "conv2d_1/kernel", "shape": [3, 3, 32, 32], "dtype": "float32"}, {"name": "conv2d_10/kernel", "shape": [3, 3, 96, 96], "dtype": "float32"}, {"name": "conv2d_11/kernel", "shape": [1, 1, 192, 32], "dtype": "float32"}, {"name": "conv2d_12/kernel", "shape": [1, 1, 256, 64], "dtype": "float32"}, {"name": "conv2d_13/kernel", "shape": [1, 1, 256, 48], "dtype": "float32"}, {"name": "conv2d_14/kernel", "shape": [5, 5, 48, 64], "dtype": "float32"}, {"name": "conv2d_15/kernel", "shape": [1, 1, 256, 64], "dtype": "float32"}, {"name": "conv2d_16/kernel", "shape": [3, 3, 64, 96], "dtype": "float32"}, {"name": "conv2d_17/kernel", "shape": [3, 3, 96, 96], "dtype": "float32"}, {"name": "conv2d_18/kernel", "shape": [1, 1, 256, 64], "dtype": "float32"}, {"name": "conv2d_19/kernel", "shape": [1, 1, 288, 64], "dtype": "float32"}, {"name": "conv2d_2/kernel", "shape": [3, 3, 32, 64], "dtype": "float32"}, {"name": "conv2d_20/kernel", "shape": [1, 1, 288, 48], "dtype": "float32"}, {"name": "conv2d_21/kernel", "shape": [5, 5, 48, 64], "dtype": "float32"}, {"name": "conv2d_22/kernel", "shape": [1, 1, 288, 64], "dtype": "float32"}, {"name": "conv2d_23/kernel", "shape": [3, 3, 64, 96], "dtype": "float32"}, {"name": "conv2d_24/kernel", "shape": [3, 3, 96, 96], "dtype": "float32"}, {"name": "conv2d_25/kernel", "shape": [1, 1, 288, 64], "dtype": "float32"}, {"name": "conv2d_26/kernel", "shape": [3, 3, 288, 384], "dtype": "float32"}, {"name": "conv2d_27/kernel", "shape": [1, 1, 288, 64], "dtype": "float32"}, {"name": "conv2d_28/kernel", "shape": [3, 3, 64, 96], "dtype": "float32"}, {"name": "conv2d_29/kernel", "shape": [3, 3, 96, 96], "dtype": "float32"}, {"name": "conv2d_3/kernel", "shape": [1, 1, 64, 80], "dtype": "float32"}, {"name": "conv2d_30/kernel", "shape": [1, 1, 768, 192], "dtype": "float32"}, {"name": "conv2d_31/kernel", "shape": [1, 1, 768, 128], "dtype": "float32"}, {"name": "conv2d_32/kernel", "shape": [1, 7, 128, 128], "dtype": "float32"}, {"name": "conv2d_33/kernel", "shape": [7, 1, 128, 192], "dtype": "float32"}, {"name": "conv2d_34/kernel", "shape": [1, 1, 768, 128], "dtype": "float32"}, {"name": "conv2d_35/kernel", "shape": [7, 1, 128, 128], "dtype": "float32"}, {"name": "conv2d_36/kernel", "shape": [1, 7, 128, 128], "dtype": "float32"}, {"name": "conv2d_37/kernel", "shape": [7, 1, 128, 128], "dtype": "float32"}, {"name": "conv2d_38/kernel", "shape": [1, 7, 128, 192], "dtype": "float32"}, {"name": "conv2d_39/kernel", "shape": [1, 1, 768, 192], "dtype": "float32"}, {"name": "conv2d_4/kernel", "shape": [3, 3, 80, 192], "dtype": "float32"}, {"name": "conv2d_40/kernel", "shape": [1, 1, 768, 192], "dtype": "float32"}, {"name": "conv2d_41/kernel", "shape": [1, 1, 768, 160], "dtype": "float32"}, {"name": "conv2d_42/kernel", "shape": [1, 7, 160, 160], "dtype": "float32"}, {"name": "conv2d_43/kernel", "shape": [7, 1, 160, 192], "dtype": "float32"}, {"name": "conv2d_44/kernel", "shape": [1, 1, 768, 160], "dtype": "float32"}, {"name": "conv2d_45/kernel", "shape": [7, 1, 160, 160], "dtype": "float32"}, {"name": "conv2d_46/kernel", "shape": [1, 7, 160, 160], "dtype": "float32"}, {"name": "conv2d_47/kernel", "shape": [7, 1, 160, 160], "dtype": "float32"}, {"name": "conv2d_48/kernel", "shape": [1, 7, 160, 192], "dtype": "float32"}, {"name": "conv2d_49/kernel", "shape": [1, 1, 768, 192], "dtype": "float32"}, {"name": "conv2d_5/kernel", "shape": [1, 1, 192, 64], "dtype": "float32"}, {"name": "conv2d_50/kernel", "shape": [1, 1, 768, 192], "dtype": "float32"}, {"name": "conv2d_51/kernel", "shape": [1, 1, 768, 160], "dtype": "float32"}, {"name": "conv2d_52/kernel", "shape": [1, 7, 160, 160], "dtype": "float32"}, {"name": "conv2d_53/kernel", "shape": [7, 1, 160, 192], "dtype": "float32"}, {"name": "conv2d_54/kernel", "shape": [1, 1, 768, 160], "dtype": "float32"}, {"name": "conv2d_55/kernel", "shape": [7, 1, 160, 160], "dtype": "float32"}, {"name": "conv2d_56/kernel", "shape": [1, 7, 160, 160], "dtype": "float32"}, {"name": "conv2d_57/kernel", "shape": [7, 1, 160, 160], "dtype": "float32"}, {"name": "conv2d_58/kernel", "shape": [1, 7, 160, 192], "dtype": "float32"}, {"name": "conv2d_59/kernel", "shape": [1, 1, 768, 192], "dtype": "float32"}, {"name": "conv2d_6/kernel", "shape": [1, 1, 192, 48], "dtype": "float32"}, {"name": "conv2d_60/kernel", "shape": [1, 1, 768, 192], "dtype": "float32"}, {"name": "conv2d_61/kernel", "shape": [1, 1, 768, 192], "dtype": "float32"}, {"name": "conv2d_62/kernel", "shape": [1, 7, 192, 192], "dtype": "float32"}, {"name": "conv2d_63/kernel", "shape": [7, 1, 192, 192], "dtype": "float32"}, {"name": "conv2d_64/kernel", "shape": [1, 1, 768, 192], "dtype": "float32"}, {"name": "conv2d_65/kernel", "shape": [7, 1, 192, 192], "dtype": "float32"}, {"name": "conv2d_66/kernel", "shape": [1, 7, 192, 192], "dtype": "float32"}, {"name": "conv2d_67/kernel", "shape": [7, 1, 192, 192], "dtype": "float32"}, {"name": "conv2d_68/kernel", "shape": [1, 7, 192, 192], "dtype": "float32"}, {"name": "conv2d_69/kernel", "shape": [1, 1, 768, 192], "dtype": "float32"}, {"name": "conv2d_7/kernel", "shape": [5, 5, 48, 64], "dtype": "float32"}, {"name": "conv2d_8/kernel", "shape": [1, 1, 192, 64], "dtype": "float32"}, {"name": "conv2d_9/kernel", "shape": [3, 3, 64, 96], "dtype": "float32"}, {"name": "dense_2/kernel", "shape": [37632, 1024], "dtype": "float32"}, {"name": "dense_2/bias", "shape": [1024], "dtype": "float32"}, {"name": "dense_3/kernel", "shape": [1024, 1], "dtype": "float32"}, {"name": "dense_3/bias", "shape": [1], "dtype": "float32"}]}]}